node {
  name: "global_step/Initializer/zeros"
  op: "Const"
  attr {
    key: "_class"
    value {
      list {
        s: "loc:@global_step"
      }
    }
  }
  attr {
    key: "_output_shapes"
    value {
      list {
        shape {
        }
      }
    }
  }
  attr {
    key: "dtype"
    value {
      type: DT_INT64
    }
  }
  attr {
    key: "value"
    value {
      tensor {
        dtype: DT_INT64
        tensor_shape {
        }
        int64_val: 0
      }
    }
  }
}
node {
  name: "global_step"
  op: "VarHandleOp"
  attr {
    key: "_class"
    value {
      list {
        s: "loc:@global_step"
      }
    }
  }
  attr {
    key: "_output_shapes"
    value {
      list {
        shape {
        }
      }
    }
  }
  attr {
    key: "container"
    value {
      s: ""
    }
  }
  attr {
    key: "dtype"
    value {
      type: DT_INT64
    }
  }
  attr {
    key: "shape"
    value {
      shape {
      }
    }
  }
  attr {
    key: "shared_name"
    value {
      s: "global_step"
    }
  }
}
node {
  name: "global_step/IsInitialized/VarIsInitializedOp"
  op: "VarIsInitializedOp"
  input: "global_step"
  attr {
    key: "_output_shapes"
    value {
      list {
        shape {
        }
      }
    }
  }
}
node {
  name: "global_step/Assign"
  op: "AssignVariableOp"
  input: "global_step"
  input: "global_step/Initializer/zeros"
  attr {
    key: "dtype"
    value {
      type: DT_INT64
    }
  }
}
node {
  name: "global_step/Read/ReadVariableOp"
  op: "ReadVariableOp"
  input: "global_step"
  attr {
    key: "_output_shapes"
    value {
      list {
        shape {
        }
      }
    }
  }
  attr {
    key: "dtype"
    value {
      type: DT_INT64
    }
  }
}
node {
  name: "global_step/VarIsInitializedOp"
  op: "VarIsInitializedOp"
  input: "global_step"
  attr {
    key: "_output_shapes"
    value {
      list {
        shape {
        }
      }
    }
  }
}
node {
  name: "global_step/cond"
  op: "If"
  input: "global_step/VarIsInitializedOp"
  input: "global_step"
  input: "global_step/Initializer/zeros"
  attr {
    key: "Tcond"
    value {
      type: DT_BOOL
    }
  }
  attr {
    key: "Tin"
    value {
      list {
        type: DT_RESOURCE
        type: DT_INT64
      }
    }
  }
  attr {
    key: "Tout"
    value {
      list {
        type: DT_INT64
      }
    }
  }
  attr {
    key: "_lower_using_switch_merge"
    value {
      b: true
    }
  }
  attr {
    key: "_output_shapes"
    value {
      list {
        shape {
        }
      }
    }
  }
  attr {
    key: "else_branch"
    value {
      func {
        name: "global_step_cond_false_7120"
      }
    }
  }
  attr {
    key: "output_shapes"
    value {
      list {
        shape {
        }
      }
    }
  }
  attr {
    key: "then_branch"
    value {
      func {
        name: "global_step_cond_true_7119"
      }
    }
  }
}
node {
  name: "global_step/cond/Identity"
  op: "Identity"
  input: "global_step/cond"
  attr {
    key: "T"
    value {
      type: DT_INT64
    }
  }
  attr {
    key: "_output_shapes"
    value {
      list {
        shape {
        }
      }
    }
  }
}
node {
  name: "global_step/add/y"
  op: "Const"
  attr {
    key: "_output_shapes"
    value {
      list {
        shape {
        }
      }
    }
  }
  attr {
    key: "dtype"
    value {
      type: DT_INT64
    }
  }
  attr {
    key: "value"
    value {
      tensor {
        dtype: DT_INT64
        tensor_shape {
        }
        int64_val: 0
      }
    }
  }
}
node {
  name: "global_step/add"
  op: "AddV2"
  input: "global_step/cond/Identity"
  input: "global_step/add/y"
  attr {
    key: "T"
    value {
      type: DT_INT64
    }
  }
  attr {
    key: "_output_shapes"
    value {
      list {
        shape {
        }
      }
    }
  }
}
node {
  name: "normalize_element/component_0"
  op: "Const"
  device: "/device:CPU:0"
  attr {
    key: "_output_shapes"
    value {
      list {
        shape {
          dim {
            size: 100
          }
        }
      }
    }
  }
  attr {
    key: "dtype"
    value {
      type: DT_STRING
    }
  }
  attr {
    key: "value"
    value {
      tensor {
        dtype: DT_STRING
        tensor_shape {
          dim {
            size: 100
          }
        }
        string_val: "D:\\luckma\\data\\processed\\train\\price\\bn\\05-21-20\\adx.tfrecords\\part-r-00000"
        string_val: "D:\\luckma\\data\\processed\\train\\price\\bn\\05-21-20\\adx.tfrecords\\part-r-00001"
        string_val: "D:\\luckma\\data\\processed\\train\\price\\bn\\05-21-20\\adx.tfrecords\\part-r-00002"
        string_val: "D:\\luckma\\data\\processed\\train\\price\\bn\\05-21-20\\adx.tfrecords\\part-r-00003"
        string_val: "D:\\luckma\\data\\processed\\train\\price\\bn\\05-21-20\\adx.tfrecords\\part-r-00004"
        string_val: "D:\\luckma\\data\\processed\\train\\price\\bn\\05-21-20\\adx.tfrecords\\part-r-00005"
        string_val: "D:\\luckma\\data\\processed\\train\\price\\bn\\05-21-20\\adx.tfrecords\\part-r-00006"
        string_val: "D:\\luckma\\data\\processed\\train\\price\\bn\\05-21-20\\adx.tfrecords\\part-r-00007"
        string_val: "D:\\luckma\\data\\processed\\train\\price\\bn\\05-21-20\\adx.tfrecords\\part-r-00008"
        string_val: "D:\\luckma\\data\\processed\\train\\price\\bn\\05-21-20\\adx.tfrecords\\part-r-00009"
        string_val: "D:\\luckma\\data\\processed\\train\\price\\bn\\05-21-20\\adx.tfrecords\\part-r-00010"
        string_val: "D:\\luckma\\data\\processed\\train\\price\\bn\\05-21-20\\adx.tfrecords\\part-r-00011"
        string_val: "D:\\luckma\\data\\processed\\train\\price\\bn\\05-21-20\\adx.tfrecords\\part-r-00012"
        string_val: "D:\\luckma\\data\\processed\\train\\price\\bn\\05-21-20\\adx.tfrecords\\part-r-00013"
        string_val: "D:\\luckma\\data\\processed\\train\\price\\bn\\05-21-20\\adx.tfrecords\\part-r-00014"
        string_val: "D:\\luckma\\data\\processed\\train\\price\\bn\\05-21-20\\adx.tfrecords\\part-r-00015"
        string_val: "D:\\luckma\\data\\processed\\train\\price\\bn\\05-21-20\\adx.tfrecords\\part-r-00016"
        string_val: "D:\\luckma\\data\\processed\\train\\price\\bn\\05-21-20\\adx.tfrecords\\part-r-00017"
        string_val: "D:\\luckma\\data\\processed\\train\\price\\bn\\05-21-20\\adx.tfrecords\\part-r-00018"
        string_val: "D:\\luckma\\data\\processed\\train\\price\\bn\\05-21-20\\adx.tfrecords\\part-r-00019"
        string_val: "D:\\luckma\\data\\processed\\train\\price\\bn\\05-21-20\\adx.tfrecords\\part-r-00020"
        string_val: "D:\\luckma\\data\\processed\\train\\price\\bn\\05-21-20\\adx.tfrecords\\part-r-00021"
        string_val: "D:\\luckma\\data\\processed\\train\\price\\bn\\05-21-20\\adx.tfrecords\\part-r-00022"
        string_val: "D:\\luckma\\data\\processed\\train\\price\\bn\\05-21-20\\adx.tfrecords\\part-r-00023"
        string_val: "D:\\luckma\\data\\processed\\train\\price\\bn\\05-21-20\\adx.tfrecords\\part-r-00024"
        string_val: "D:\\luckma\\data\\processed\\train\\price\\bn\\05-21-20\\adx.tfrecords\\part-r-00025"
        string_val: "D:\\luckma\\data\\processed\\train\\price\\bn\\05-21-20\\adx.tfrecords\\part-r-00026"
        string_val: "D:\\luckma\\data\\processed\\train\\price\\bn\\05-21-20\\adx.tfrecords\\part-r-00027"
        string_val: "D:\\luckma\\data\\processed\\train\\price\\bn\\05-21-20\\adx.tfrecords\\part-r-00028"
        string_val: "D:\\luckma\\data\\processed\\train\\price\\bn\\05-21-20\\adx.tfrecords\\part-r-00029"
        string_val: "D:\\luckma\\data\\processed\\train\\price\\bn\\05-21-20\\adx.tfrecords\\part-r-00030"
        string_val: "D:\\luckma\\data\\processed\\train\\price\\bn\\05-21-20\\adx.tfrecords\\part-r-00031"
        string_val: "D:\\luckma\\data\\processed\\train\\price\\bn\\05-21-20\\adx.tfrecords\\part-r-00032"
        string_val: "D:\\luckma\\data\\processed\\train\\price\\bn\\05-21-20\\adx.tfrecords\\part-r-00033"
        string_val: "D:\\luckma\\data\\processed\\train\\price\\bn\\05-21-20\\adx.tfrecords\\part-r-00034"
        string_val: "D:\\luckma\\data\\processed\\train\\price\\bn\\05-21-20\\adx.tfrecords\\part-r-00035"
        string_val: "D:\\luckma\\data\\processed\\train\\price\\bn\\05-21-20\\adx.tfrecords\\part-r-00036"
        string_val: "D:\\luckma\\data\\processed\\train\\price\\bn\\05-21-20\\adx.tfrecords\\part-r-00037"
        string_val: "D:\\luckma\\data\\processed\\train\\price\\bn\\05-21-20\\adx.tfrecords\\part-r-00038"
        string_val: "D:\\luckma\\data\\processed\\train\\price\\bn\\05-21-20\\adx.tfrecords\\part-r-00039"
        string_val: "D:\\luckma\\data\\processed\\train\\price\\bn\\05-21-20\\adx.tfrecords\\part-r-00040"
        string_val: "D:\\luckma\\data\\processed\\train\\price\\bn\\05-21-20\\adx.tfrecords\\part-r-00041"
        string_val: "D:\\luckma\\data\\processed\\train\\price\\bn\\05-21-20\\adx.tfrecords\\part-r-00042"
        string_val: "D:\\luckma\\data\\processed\\train\\price\\bn\\05-21-20\\adx.tfrecords\\part-r-00043"
        string_val: "D:\\luckma\\data\\processed\\train\\price\\bn\\05-21-20\\adx.tfrecords\\part-r-00044"
        string_val: "D:\\luckma\\data\\processed\\train\\price\\bn\\05-21-20\\adx.tfrecords\\part-r-00045"
        string_val: "D:\\luckma\\data\\processed\\train\\price\\bn\\05-21-20\\adx.tfrecords\\part-r-00046"
        string_val: "D:\\luckma\\data\\processed\\train\\price\\bn\\05-21-20\\adx.tfrecords\\part-r-00047"
        string_val: "D:\\luckma\\data\\processed\\train\\price\\bn\\05-21-20\\adx.tfrecords\\part-r-00048"
        string_val: "D:\\luckma\\data\\processed\\train\\price\\bn\\05-21-20\\adx.tfrecords\\part-r-00049"
        string_val: "D:\\luckma\\data\\processed\\train\\price\\bn\\05-21-20\\adx.tfrecords\\part-r-00050"
        string_val: "D:\\luckma\\data\\processed\\train\\price\\bn\\05-21-20\\adx.tfrecords\\part-r-00051"
        string_val: "D:\\luckma\\data\\processed\\train\\price\\bn\\05-21-20\\adx.tfrecords\\part-r-00052"
        string_val: "D:\\luckma\\data\\processed\\train\\price\\bn\\05-21-20\\adx.tfrecords\\part-r-00053"
        string_val: "D:\\luckma\\data\\processed\\train\\price\\bn\\05-21-20\\adx.tfrecords\\part-r-00054"
        string_val: "D:\\luckma\\data\\processed\\train\\price\\bn\\05-21-20\\adx.tfrecords\\part-r-00055"
        string_val: "D:\\luckma\\data\\processed\\train\\price\\bn\\05-21-20\\adx.tfrecords\\part-r-00056"
        string_val: "D:\\luckma\\data\\processed\\train\\price\\bn\\05-21-20\\adx.tfrecords\\part-r-00057"
        string_val: "D:\\luckma\\data\\processed\\train\\price\\bn\\05-21-20\\adx.tfrecords\\part-r-00058"
        string_val: "D:\\luckma\\data\\processed\\train\\price\\bn\\05-21-20\\adx.tfrecords\\part-r-00059"
        string_val: "D:\\luckma\\data\\processed\\train\\price\\bn\\05-21-20\\adx.tfrecords\\part-r-00060"
        string_val: "D:\\luckma\\data\\processed\\train\\price\\bn\\05-21-20\\adx.tfrecords\\part-r-00061"
        string_val: "D:\\luckma\\data\\processed\\train\\price\\bn\\05-21-20\\adx.tfrecords\\part-r-00062"
        string_val: "D:\\luckma\\data\\processed\\train\\price\\bn\\05-21-20\\adx.tfrecords\\part-r-00063"
        string_val: "D:\\luckma\\data\\processed\\train\\price\\bn\\05-21-20\\adx.tfrecords\\part-r-00064"
        string_val: "D:\\luckma\\data\\processed\\train\\price\\bn\\05-21-20\\adx.tfrecords\\part-r-00065"
        string_val: "D:\\luckma\\data\\processed\\train\\price\\bn\\05-21-20\\adx.tfrecords\\part-r-00066"
        string_val: "D:\\luckma\\data\\processed\\train\\price\\bn\\05-21-20\\adx.tfrecords\\part-r-00067"
        string_val: "D:\\luckma\\data\\processed\\train\\price\\bn\\05-21-20\\adx.tfrecords\\part-r-00068"
        string_val: "D:\\luckma\\data\\processed\\train\\price\\bn\\05-21-20\\adx.tfrecords\\part-r-00069"
        string_val: "D:\\luckma\\data\\processed\\train\\price\\bn\\05-21-20\\adx.tfrecords\\part-r-00070"
        string_val: "D:\\luckma\\data\\processed\\train\\price\\bn\\05-21-20\\adx.tfrecords\\part-r-00071"
        string_val: "D:\\luckma\\data\\processed\\train\\price\\bn\\05-21-20\\adx.tfrecords\\part-r-00072"
        string_val: "D:\\luckma\\data\\processed\\train\\price\\bn\\05-21-20\\adx.tfrecords\\part-r-00073"
        string_val: "D:\\luckma\\data\\processed\\train\\price\\bn\\05-21-20\\adx.tfrecords\\part-r-00074"
        string_val: "D:\\luckma\\data\\processed\\train\\price\\bn\\05-21-20\\adx.tfrecords\\part-r-00075"
        string_val: "D:\\luckma\\data\\processed\\train\\price\\bn\\05-21-20\\adx.tfrecords\\part-r-00076"
        string_val: "D:\\luckma\\data\\processed\\train\\price\\bn\\05-21-20\\adx.tfrecords\\part-r-00077"
        string_val: "D:\\luckma\\data\\processed\\train\\price\\bn\\05-21-20\\adx.tfrecords\\part-r-00078"
        string_val: "D:\\luckma\\data\\processed\\train\\price\\bn\\05-21-20\\adx.tfrecords\\part-r-00079"
        string_val: "D:\\luckma\\data\\processed\\train\\price\\bn\\05-21-20\\adx.tfrecords\\part-r-00080"
        string_val: "D:\\luckma\\data\\processed\\train\\price\\bn\\05-21-20\\adx.tfrecords\\part-r-00081"
        string_val: "D:\\luckma\\data\\processed\\train\\price\\bn\\05-21-20\\adx.tfrecords\\part-r-00082"
        string_val: "D:\\luckma\\data\\processed\\train\\price\\bn\\05-21-20\\adx.tfrecords\\part-r-00083"
        string_val: "D:\\luckma\\data\\processed\\train\\price\\bn\\05-21-20\\adx.tfrecords\\part-r-00084"
        string_val: "D:\\luckma\\data\\processed\\train\\price\\bn\\05-21-20\\adx.tfrecords\\part-r-00085"
        string_val: "D:\\luckma\\data\\processed\\train\\price\\bn\\05-21-20\\adx.tfrecords\\part-r-00086"
        string_val: "D:\\luckma\\data\\processed\\train\\price\\bn\\05-21-20\\adx.tfrecords\\part-r-00087"
        string_val: "D:\\luckma\\data\\processed\\train\\price\\bn\\05-21-20\\adx.tfrecords\\part-r-00088"
        string_val: "D:\\luckma\\data\\processed\\train\\price\\bn\\05-21-20\\adx.tfrecords\\part-r-00089"
        string_val: "D:\\luckma\\data\\processed\\train\\price\\bn\\05-21-20\\adx.tfrecords\\part-r-00090"
        string_val: "D:\\luckma\\data\\processed\\train\\price\\bn\\05-21-20\\adx.tfrecords\\part-r-00091"
        string_val: "D:\\luckma\\data\\processed\\train\\price\\bn\\05-21-20\\adx.tfrecords\\part-r-00092"
        string_val: "D:\\luckma\\data\\processed\\train\\price\\bn\\05-21-20\\adx.tfrecords\\part-r-00093"
        string_val: "D:\\luckma\\data\\processed\\train\\price\\bn\\05-21-20\\adx.tfrecords\\part-r-00094"
        string_val: "D:\\luckma\\data\\processed\\train\\price\\bn\\05-21-20\\adx.tfrecords\\part-r-00095"
        string_val: "D:\\luckma\\data\\processed\\train\\price\\bn\\05-21-20\\adx.tfrecords\\part-r-00096"
        string_val: "D:\\luckma\\data\\processed\\train\\price\\bn\\05-21-20\\adx.tfrecords\\part-r-00097"
        string_val: "D:\\luckma\\data\\processed\\train\\price\\bn\\05-21-20\\adx.tfrecords\\part-r-00098"
        string_val: "D:\\luckma\\data\\processed\\train\\price\\bn\\05-21-20\\adx.tfrecords\\part-r-00099"
      }
    }
  }
}
node {
  name: "TensorSliceDataset"
  op: "TensorSliceDataset"
  input: "normalize_element/component_0"
  device: "/device:CPU:0"
  attr {
    key: "Toutput_types"
    value {
      list {
        type: DT_STRING
      }
    }
  }
  attr {
    key: "_output_shapes"
    value {
      list {
        shape {
        }
      }
    }
  }
  attr {
    key: "output_shapes"
    value {
      list {
        shape {
        }
      }
    }
  }
}
node {
  name: "cycle_length"
  op: "Const"
  device: "/device:CPU:0"
  attr {
    key: "_output_shapes"
    value {
      list {
        shape {
        }
      }
    }
  }
  attr {
    key: "dtype"
    value {
      type: DT_INT64
    }
  }
  attr {
    key: "value"
    value {
      tensor {
        dtype: DT_INT64
        tensor_shape {
        }
        int64_val: -1
      }
    }
  }
}
node {
  name: "block_length"
  op: "Const"
  device: "/device:CPU:0"
  attr {
    key: "_output_shapes"
    value {
      list {
        shape {
        }
      }
    }
  }
  attr {
    key: "dtype"
    value {
      type: DT_INT64
    }
  }
  attr {
    key: "value"
    value {
      tensor {
        dtype: DT_INT64
        tensor_shape {
        }
        int64_val: 1
      }
    }
  }
}
node {
  name: "num_parallel_calls"
  op: "Const"
  device: "/device:CPU:0"
  attr {
    key: "_output_shapes"
    value {
      list {
        shape {
        }
      }
    }
  }
  attr {
    key: "dtype"
    value {
      type: DT_INT64
    }
  }
  attr {
    key: "value"
    value {
      tensor {
        dtype: DT_INT64
        tensor_shape {
        }
        int64_val: -1
      }
    }
  }
}
node {
  name: "ParallelInterleaveDatasetV2"
  op: "ParallelInterleaveDatasetV2"
  input: "TensorSliceDataset"
  input: "cycle_length"
  input: "block_length"
  input: "num_parallel_calls"
  device: "/device:CPU:0"
  attr {
    key: "Targuments"
    value {
      list {
      }
    }
  }
  attr {
    key: "_output_shapes"
    value {
      list {
        shape {
        }
      }
    }
  }
  attr {
    key: "f"
    value {
      func {
        name: "__inference_Dataset_interleave_lambda_7205"
      }
    }
  }
  attr {
    key: "output_shapes"
    value {
      list {
        shape {
          unknown_rank: true
        }
        shape {
          unknown_rank: true
        }
        shape {
          unknown_rank: true
        }
        shape {
          unknown_rank: true
        }
        shape {
          unknown_rank: true
        }
        shape {
          unknown_rank: true
        }
        shape {
          unknown_rank: true
        }
        shape {
          dim {
            size: -1
          }
        }
      }
    }
  }
  attr {
    key: "output_types"
    value {
      list {
        type: DT_VARIANT
        type: DT_VARIANT
        type: DT_VARIANT
        type: DT_VARIANT
        type: DT_VARIANT
        type: DT_VARIANT
        type: DT_VARIANT
        type: DT_FLOAT
      }
    }
  }
  attr {
    key: "sloppy"
    value {
      b: false
    }
  }
}
node {
  name: "filename"
  op: "Const"
  device: "/device:CPU:0"
  attr {
    key: "_output_shapes"
    value {
      list {
        shape {
        }
      }
    }
  }
  attr {
    key: "dtype"
    value {
      type: DT_STRING
    }
  }
  attr {
    key: "value"
    value {
      tensor {
        dtype: DT_STRING
        tensor_shape {
        }
        string_val: ""
      }
    }
  }
}
node {
  name: "CacheDataset"
  op: "CacheDataset"
  input: "ParallelInterleaveDatasetV2"
  input: "filename"
  device: "/device:CPU:0"
  attr {
    key: "_output_shapes"
    value {
      list {
        shape {
        }
      }
    }
  }
  attr {
    key: "output_shapes"
    value {
      list {
        shape {
          unknown_rank: true
        }
        shape {
          unknown_rank: true
        }
        shape {
          unknown_rank: true
        }
        shape {
          unknown_rank: true
        }
        shape {
          unknown_rank: true
        }
        shape {
          unknown_rank: true
        }
        shape {
          unknown_rank: true
        }
        shape {
          dim {
            size: -1
          }
        }
      }
    }
  }
  attr {
    key: "output_types"
    value {
      list {
        type: DT_VARIANT
        type: DT_VARIANT
        type: DT_VARIANT
        type: DT_VARIANT
        type: DT_VARIANT
        type: DT_VARIANT
        type: DT_VARIANT
        type: DT_FLOAT
      }
    }
  }
}
node {
  name: "buffer_size"
  op: "Const"
  device: "/device:CPU:0"
  attr {
    key: "_output_shapes"
    value {
      list {
        shape {
        }
      }
    }
  }
  attr {
    key: "dtype"
    value {
      type: DT_INT64
    }
  }
  attr {
    key: "value"
    value {
      tensor {
        dtype: DT_INT64
        tensor_shape {
        }
        int64_val: 4508
      }
    }
  }
}
node {
  name: "seed"
  op: "Const"
  device: "/device:CPU:0"
  attr {
    key: "_output_shapes"
    value {
      list {
        shape {
        }
      }
    }
  }
  attr {
    key: "dtype"
    value {
      type: DT_INT64
    }
  }
  attr {
    key: "value"
    value {
      tensor {
        dtype: DT_INT64
        tensor_shape {
        }
        int64_val: 0
      }
    }
  }
}
node {
  name: "seed2"
  op: "Const"
  device: "/device:CPU:0"
  attr {
    key: "_output_shapes"
    value {
      list {
        shape {
        }
      }
    }
  }
  attr {
    key: "dtype"
    value {
      type: DT_INT64
    }
  }
  attr {
    key: "value"
    value {
      tensor {
        dtype: DT_INT64
        tensor_shape {
        }
        int64_val: 0
      }
    }
  }
}
node {
  name: "ShuffleDataset"
  op: "ShuffleDataset"
  input: "CacheDataset"
  input: "buffer_size"
  input: "seed"
  input: "seed2"
  device: "/device:CPU:0"
  attr {
    key: "_output_shapes"
    value {
      list {
        shape {
        }
      }
    }
  }
  attr {
    key: "output_shapes"
    value {
      list {
        shape {
          unknown_rank: true
        }
        shape {
          unknown_rank: true
        }
        shape {
          unknown_rank: true
        }
        shape {
          unknown_rank: true
        }
        shape {
          unknown_rank: true
        }
        shape {
          unknown_rank: true
        }
        shape {
          unknown_rank: true
        }
        shape {
          dim {
            size: -1
          }
        }
      }
    }
  }
  attr {
    key: "output_types"
    value {
      list {
        type: DT_VARIANT
        type: DT_VARIANT
        type: DT_VARIANT
        type: DT_VARIANT
        type: DT_VARIANT
        type: DT_VARIANT
        type: DT_VARIANT
        type: DT_FLOAT
      }
    }
  }
  attr {
    key: "reshuffle_each_iteration"
    value {
      b: true
    }
  }
}
node {
  name: "count"
  op: "Const"
  device: "/device:CPU:0"
  attr {
    key: "_output_shapes"
    value {
      list {
        shape {
        }
      }
    }
  }
  attr {
    key: "dtype"
    value {
      type: DT_INT64
    }
  }
  attr {
    key: "value"
    value {
      tensor {
        dtype: DT_INT64
        tensor_shape {
        }
        int64_val: -1
      }
    }
  }
}
node {
  name: "RepeatDataset"
  op: "RepeatDataset"
  input: "ShuffleDataset"
  input: "count"
  device: "/device:CPU:0"
  attr {
    key: "_output_shapes"
    value {
      list {
        shape {
        }
      }
    }
  }
  attr {
    key: "output_shapes"
    value {
      list {
        shape {
          unknown_rank: true
        }
        shape {
          unknown_rank: true
        }
        shape {
          unknown_rank: true
        }
        shape {
          unknown_rank: true
        }
        shape {
          unknown_rank: true
        }
        shape {
          unknown_rank: true
        }
        shape {
          unknown_rank: true
        }
        shape {
          dim {
            size: -1
          }
        }
      }
    }
  }
  attr {
    key: "output_types"
    value {
      list {
        type: DT_VARIANT
        type: DT_VARIANT
        type: DT_VARIANT
        type: DT_VARIANT
        type: DT_VARIANT
        type: DT_VARIANT
        type: DT_VARIANT
        type: DT_FLOAT
      }
    }
  }
}
node {
  name: "batch_size"
  op: "Const"
  device: "/device:CPU:0"
  attr {
    key: "_output_shapes"
    value {
      list {
        shape {
        }
      }
    }
  }
  attr {
    key: "dtype"
    value {
      type: DT_INT64
    }
  }
  attr {
    key: "value"
    value {
      tensor {
        dtype: DT_INT64
        tensor_shape {
        }
        int64_val: 64
      }
    }
  }
}
node {
  name: "drop_remainder"
  op: "Const"
  device: "/device:CPU:0"
  attr {
    key: "_output_shapes"
    value {
      list {
        shape {
        }
      }
    }
  }
  attr {
    key: "dtype"
    value {
      type: DT_BOOL
    }
  }
  attr {
    key: "value"
    value {
      tensor {
        dtype: DT_BOOL
        tensor_shape {
        }
        bool_val: true
      }
    }
  }
}
node {
  name: "BatchDatasetV2"
  op: "BatchDatasetV2"
  input: "RepeatDataset"
  input: "batch_size"
  input: "drop_remainder"
  device: "/device:CPU:0"
  attr {
    key: "_output_shapes"
    value {
      list {
        shape {
        }
      }
    }
  }
  attr {
    key: "output_shapes"
    value {
      list {
        shape {
          unknown_rank: true
        }
        shape {
          unknown_rank: true
        }
        shape {
          unknown_rank: true
        }
        shape {
          unknown_rank: true
        }
        shape {
          unknown_rank: true
        }
        shape {
          unknown_rank: true
        }
        shape {
          unknown_rank: true
        }
        shape {
          dim {
            size: 64
          }
          dim {
            size: -1
          }
        }
      }
    }
  }
  attr {
    key: "output_types"
    value {
      list {
        type: DT_VARIANT
        type: DT_VARIANT
        type: DT_VARIANT
        type: DT_VARIANT
        type: DT_VARIANT
        type: DT_VARIANT
        type: DT_VARIANT
        type: DT_FLOAT
      }
    }
  }
  attr {
    key: "parallel_copy"
    value {
      b: false
    }
  }
}
node {
  name: "buffer_size_1"
  op: "Const"
  device: "/device:CPU:0"
  attr {
    key: "_output_shapes"
    value {
      list {
        shape {
        }
      }
    }
  }
  attr {
    key: "dtype"
    value {
      type: DT_INT64
    }
  }
  attr {
    key: "value"
    value {
      tensor {
        dtype: DT_INT64
        tensor_shape {
        }
        int64_val: -1
      }
    }
  }
}
node {
  name: "PrefetchDataset"
  op: "PrefetchDataset"
  input: "BatchDatasetV2"
  input: "buffer_size_1"
  device: "/device:CPU:0"
  attr {
    key: "_output_shapes"
    value {
      list {
        shape {
        }
      }
    }
  }
  attr {
    key: "legacy_autotune"
    value {
      b: true
    }
  }
  attr {
    key: "output_shapes"
    value {
      list {
        shape {
          unknown_rank: true
        }
        shape {
          unknown_rank: true
        }
        shape {
          unknown_rank: true
        }
        shape {
          unknown_rank: true
        }
        shape {
          unknown_rank: true
        }
        shape {
          unknown_rank: true
        }
        shape {
          unknown_rank: true
        }
        shape {
          dim {
            size: 64
          }
          dim {
            size: -1
          }
        }
      }
    }
  }
  attr {
    key: "output_types"
    value {
      list {
        type: DT_VARIANT
        type: DT_VARIANT
        type: DT_VARIANT
        type: DT_VARIANT
        type: DT_VARIANT
        type: DT_VARIANT
        type: DT_VARIANT
        type: DT_FLOAT
      }
    }
  }
  attr {
    key: "slack_period"
    value {
      i: 0
    }
  }
}
node {
  name: "optimizations"
  op: "Const"
  attr {
    key: "_output_shapes"
    value {
      list {
        shape {
          dim {
            size: 3
          }
        }
      }
    }
  }
  attr {
    key: "dtype"
    value {
      type: DT_STRING
    }
  }
  attr {
    key: "value"
    value {
      tensor {
        dtype: DT_STRING
        tensor_shape {
          dim {
            size: 3
          }
        }
        string_val: "map_and_batch_fusion"
        string_val: "noop_elimination"
        string_val: "shuffle_and_repeat_fusion"
      }
    }
  }
}
node {
  name: "OptimizeDataset"
  op: "OptimizeDataset"
  input: "PrefetchDataset"
  input: "optimizations"
  attr {
    key: "_output_shapes"
    value {
      list {
        shape {
        }
      }
    }
  }
  attr {
    key: "optimization_configs"
    value {
      list {
        s: "map_vectorization:use_choose_fastest:false"
      }
    }
  }
  attr {
    key: "output_shapes"
    value {
      list {
        shape {
          unknown_rank: true
        }
        shape {
          unknown_rank: true
        }
        shape {
          unknown_rank: true
        }
        shape {
          unknown_rank: true
        }
        shape {
          unknown_rank: true
        }
        shape {
          unknown_rank: true
        }
        shape {
          unknown_rank: true
        }
        shape {
          dim {
            size: 64
          }
          dim {
            size: -1
          }
        }
      }
    }
  }
  attr {
    key: "output_types"
    value {
      list {
        type: DT_VARIANT
        type: DT_VARIANT
        type: DT_VARIANT
        type: DT_VARIANT
        type: DT_VARIANT
        type: DT_VARIANT
        type: DT_VARIANT
        type: DT_FLOAT
      }
    }
  }
}
node {
  name: "ModelDataset"
  op: "ModelDataset"
  input: "OptimizeDataset"
  attr {
    key: "_output_shapes"
    value {
      list {
        shape {
        }
      }
    }
  }
  attr {
    key: "algorithm"
    value {
      i: 0
    }
  }
  attr {
    key: "cpu_budget"
    value {
      i: 0
    }
  }
  attr {
    key: "output_shapes"
    value {
      list {
        shape {
          unknown_rank: true
        }
        shape {
          unknown_rank: true
        }
        shape {
          unknown_rank: true
        }
        shape {
          unknown_rank: true
        }
        shape {
          unknown_rank: true
        }
        shape {
          unknown_rank: true
        }
        shape {
          unknown_rank: true
        }
        shape {
          dim {
            size: 64
          }
          dim {
            size: -1
          }
        }
      }
    }
  }
  attr {
    key: "output_types"
    value {
      list {
        type: DT_VARIANT
        type: DT_VARIANT
        type: DT_VARIANT
        type: DT_VARIANT
        type: DT_VARIANT
        type: DT_VARIANT
        type: DT_VARIANT
        type: DT_FLOAT
      }
    }
  }
}
node {
  name: "IteratorV2"
  op: "IteratorV2"
  attr {
    key: "_output_shapes"
    value {
      list {
        shape {
        }
      }
    }
  }
  attr {
    key: "container"
    value {
      s: ""
    }
  }
  attr {
    key: "output_shapes"
    value {
      list {
        shape {
          unknown_rank: true
        }
        shape {
          unknown_rank: true
        }
        shape {
          unknown_rank: true
        }
        shape {
          unknown_rank: true
        }
        shape {
          unknown_rank: true
        }
        shape {
          unknown_rank: true
        }
        shape {
          unknown_rank: true
        }
        shape {
          dim {
            size: 64
          }
          dim {
            size: -1
          }
        }
      }
    }
  }
  attr {
    key: "output_types"
    value {
      list {
        type: DT_VARIANT
        type: DT_VARIANT
        type: DT_VARIANT
        type: DT_VARIANT
        type: DT_VARIANT
        type: DT_VARIANT
        type: DT_VARIANT
        type: DT_FLOAT
      }
    }
  }
  attr {
    key: "shared_name"
    value {
      s: ""
    }
  }
}
node {
  name: "MakeIterator"
  op: "MakeIterator"
  input: "ModelDataset"
  input: "IteratorV2"
  attr {
    key: "_class"
    value {
      list {
        s: "loc:@IteratorV2"
      }
    }
  }
}
node {
  name: "IteratorToStringHandle"
  op: "IteratorToStringHandle"
  input: "IteratorV2"
  attr {
    key: "_output_shapes"
    value {
      list {
        shape {
        }
      }
    }
  }
}
node {
  name: "IteratorGetNext"
  op: "IteratorGetNext"
  input: "IteratorV2"
  attr {
    key: "_output_shapes"
    value {
      list {
        shape {
          unknown_rank: true
        }
        shape {
          unknown_rank: true
        }
        shape {
          unknown_rank: true
        }
        shape {
          unknown_rank: true
        }
        shape {
          unknown_rank: true
        }
        shape {
          unknown_rank: true
        }
        shape {
          unknown_rank: true
        }
        shape {
          dim {
            size: 64
          }
          dim {
            size: -1
          }
        }
      }
    }
  }
  attr {
    key: "output_shapes"
    value {
      list {
        shape {
          unknown_rank: true
        }
        shape {
          unknown_rank: true
        }
        shape {
          unknown_rank: true
        }
        shape {
          unknown_rank: true
        }
        shape {
          unknown_rank: true
        }
        shape {
          unknown_rank: true
        }
        shape {
          unknown_rank: true
        }
        shape {
          dim {
            size: 64
          }
          dim {
            size: -1
          }
        }
      }
    }
  }
  attr {
    key: "output_types"
    value {
      list {
        type: DT_VARIANT
        type: DT_VARIANT
        type: DT_VARIANT
        type: DT_VARIANT
        type: DT_VARIANT
        type: DT_VARIANT
        type: DT_VARIANT
        type: DT_FLOAT
      }
    }
  }
}
node {
  name: "DeserializeSparse"
  op: "DeserializeSparse"
  input: "IteratorGetNext"
  attr {
    key: "Tserialized"
    value {
      type: DT_VARIANT
    }
  }
  attr {
    key: "_output_shapes"
    value {
      list {
        shape {
          dim {
            size: -1
          }
          dim {
            size: 3
          }
        }
        shape {
          dim {
            size: -1
          }
        }
        shape {
          dim {
            size: -1
          }
        }
      }
    }
  }
  attr {
    key: "dtype"
    value {
      type: DT_FLOAT
    }
  }
}
node {
  name: "unstack"
  op: "Unpack"
  input: "DeserializeSparse:2"
  attr {
    key: "T"
    value {
      type: DT_INT64
    }
  }
  attr {
    key: "_output_shapes"
    value {
      list {
        shape {
        }
        shape {
        }
        shape {
        }
      }
    }
  }
  attr {
    key: "axis"
    value {
      i: 0
    }
  }
  attr {
    key: "num"
    value {
      i: 3
    }
  }
}
node {
  name: "Const"
  op: "Const"
  attr {
    key: "_output_shapes"
    value {
      list {
        shape {
        }
      }
    }
  }
  attr {
    key: "dtype"
    value {
      type: DT_INT64
    }
  }
  attr {
    key: "value"
    value {
      tensor {
        dtype: DT_INT64
        tensor_shape {
        }
        int64_val: 64
      }
    }
  }
}
node {
  name: "stack"
  op: "Pack"
  input: "Const"
  input: "unstack:1"
  input: "unstack:2"
  attr {
    key: "N"
    value {
      i: 3
    }
  }
  attr {
    key: "T"
    value {
      type: DT_INT64
    }
  }
  attr {
    key: "_output_shapes"
    value {
      list {
        shape {
          dim {
            size: 3
          }
        }
      }
    }
  }
  attr {
    key: "axis"
    value {
      i: 0
    }
  }
}
node {
  name: "DeserializeSparse_1"
  op: "DeserializeSparse"
  input: "IteratorGetNext:1"
  attr {
    key: "Tserialized"
    value {
      type: DT_VARIANT
    }
  }
  attr {
    key: "_output_shapes"
    value {
      list {
        shape {
          dim {
            size: -1
          }
          dim {
            size: 3
          }
        }
        shape {
          dim {
            size: -1
          }
        }
        shape {
          dim {
            size: -1
          }
        }
      }
    }
  }
  attr {
    key: "dtype"
    value {
      type: DT_FLOAT
    }
  }
}
node {
  name: "unstack_1"
  op: "Unpack"
  input: "DeserializeSparse_1:2"
  attr {
    key: "T"
    value {
      type: DT_INT64
    }
  }
  attr {
    key: "_output_shapes"
    value {
      list {
        shape {
        }
        shape {
        }
        shape {
        }
      }
    }
  }
  attr {
    key: "axis"
    value {
      i: 0
    }
  }
  attr {
    key: "num"
    value {
      i: 3
    }
  }
}
node {
  name: "Const_1"
  op: "Const"
  attr {
    key: "_output_shapes"
    value {
      list {
        shape {
        }
      }
    }
  }
  attr {
    key: "dtype"
    value {
      type: DT_INT64
    }
  }
  attr {
    key: "value"
    value {
      tensor {
        dtype: DT_INT64
        tensor_shape {
        }
        int64_val: 64
      }
    }
  }
}
node {
  name: "stack_1"
  op: "Pack"
  input: "Const_1"
  input: "unstack_1:1"
  input: "unstack_1:2"
  attr {
    key: "N"
    value {
      i: 3
    }
  }
  attr {
    key: "T"
    value {
      type: DT_INT64
    }
  }
  attr {
    key: "_output_shapes"
    value {
      list {
        shape {
          dim {
            size: 3
          }
        }
      }
    }
  }
  attr {
    key: "axis"
    value {
      i: 0
    }
  }
}
node {
  name: "DeserializeSparse_2"
  op: "DeserializeSparse"
  input: "IteratorGetNext:2"
  attr {
    key: "Tserialized"
    value {
      type: DT_VARIANT
    }
  }
  attr {
    key: "_output_shapes"
    value {
      list {
        shape {
          dim {
            size: -1
          }
          dim {
            size: 3
          }
        }
        shape {
          dim {
            size: -1
          }
        }
        shape {
          dim {
            size: -1
          }
        }
      }
    }
  }
  attr {
    key: "dtype"
    value {
      type: DT_FLOAT
    }
  }
}
node {
  name: "unstack_2"
  op: "Unpack"
  input: "DeserializeSparse_2:2"
  attr {
    key: "T"
    value {
      type: DT_INT64
    }
  }
  attr {
    key: "_output_shapes"
    value {
      list {
        shape {
        }
        shape {
        }
        shape {
        }
      }
    }
  }
  attr {
    key: "axis"
    value {
      i: 0
    }
  }
  attr {
    key: "num"
    value {
      i: 3
    }
  }
}
node {
  name: "Const_2"
  op: "Const"
  attr {
    key: "_output_shapes"
    value {
      list {
        shape {
        }
      }
    }
  }
  attr {
    key: "dtype"
    value {
      type: DT_INT64
    }
  }
  attr {
    key: "value"
    value {
      tensor {
        dtype: DT_INT64
        tensor_shape {
        }
        int64_val: 64
      }
    }
  }
}
node {
  name: "stack_2"
  op: "Pack"
  input: "Const_2"
  input: "unstack_2:1"
  input: "unstack_2:2"
  attr {
    key: "N"
    value {
      i: 3
    }
  }
  attr {
    key: "T"
    value {
      type: DT_INT64
    }
  }
  attr {
    key: "_output_shapes"
    value {
      list {
        shape {
          dim {
            size: 3
          }
        }
      }
    }
  }
  attr {
    key: "axis"
    value {
      i: 0
    }
  }
}
node {
  name: "DeserializeSparse_3"
  op: "DeserializeSparse"
  input: "IteratorGetNext:3"
  attr {
    key: "Tserialized"
    value {
      type: DT_VARIANT
    }
  }
  attr {
    key: "_output_shapes"
    value {
      list {
        shape {
          dim {
            size: -1
          }
          dim {
            size: 3
          }
        }
        shape {
          dim {
            size: -1
          }
        }
        shape {
          dim {
            size: -1
          }
        }
      }
    }
  }
  attr {
    key: "dtype"
    value {
      type: DT_FLOAT
    }
  }
}
node {
  name: "unstack_3"
  op: "Unpack"
  input: "DeserializeSparse_3:2"
  attr {
    key: "T"
    value {
      type: DT_INT64
    }
  }
  attr {
    key: "_output_shapes"
    value {
      list {
        shape {
        }
        shape {
        }
        shape {
        }
      }
    }
  }
  attr {
    key: "axis"
    value {
      i: 0
    }
  }
  attr {
    key: "num"
    value {
      i: 3
    }
  }
}
node {
  name: "Const_3"
  op: "Const"
  attr {
    key: "_output_shapes"
    value {
      list {
        shape {
        }
      }
    }
  }
  attr {
    key: "dtype"
    value {
      type: DT_INT64
    }
  }
  attr {
    key: "value"
    value {
      tensor {
        dtype: DT_INT64
        tensor_shape {
        }
        int64_val: 64
      }
    }
  }
}
node {
  name: "stack_3"
  op: "Pack"
  input: "Const_3"
  input: "unstack_3:1"
  input: "unstack_3:2"
  attr {
    key: "N"
    value {
      i: 3
    }
  }
  attr {
    key: "T"
    value {
      type: DT_INT64
    }
  }
  attr {
    key: "_output_shapes"
    value {
      list {
        shape {
          dim {
            size: 3
          }
        }
      }
    }
  }
  attr {
    key: "axis"
    value {
      i: 0
    }
  }
}
node {
  name: "DeserializeSparse_4"
  op: "DeserializeSparse"
  input: "IteratorGetNext:4"
  attr {
    key: "Tserialized"
    value {
      type: DT_VARIANT
    }
  }
  attr {
    key: "_output_shapes"
    value {
      list {
        shape {
          dim {
            size: -1
          }
          dim {
            size: 3
          }
        }
        shape {
          dim {
            size: -1
          }
        }
        shape {
          dim {
            size: -1
          }
        }
      }
    }
  }
  attr {
    key: "dtype"
    value {
      type: DT_FLOAT
    }
  }
}
node {
  name: "unstack_4"
  op: "Unpack"
  input: "DeserializeSparse_4:2"
  attr {
    key: "T"
    value {
      type: DT_INT64
    }
  }
  attr {
    key: "_output_shapes"
    value {
      list {
        shape {
        }
        shape {
        }
        shape {
        }
      }
    }
  }
  attr {
    key: "axis"
    value {
      i: 0
    }
  }
  attr {
    key: "num"
    value {
      i: 3
    }
  }
}
node {
  name: "Const_4"
  op: "Const"
  attr {
    key: "_output_shapes"
    value {
      list {
        shape {
        }
      }
    }
  }
  attr {
    key: "dtype"
    value {
      type: DT_INT64
    }
  }
  attr {
    key: "value"
    value {
      tensor {
        dtype: DT_INT64
        tensor_shape {
        }
        int64_val: 64
      }
    }
  }
}
node {
  name: "stack_4"
  op: "Pack"
  input: "Const_4"
  input: "unstack_4:1"
  input: "unstack_4:2"
  attr {
    key: "N"
    value {
      i: 3
    }
  }
  attr {
    key: "T"
    value {
      type: DT_INT64
    }
  }
  attr {
    key: "_output_shapes"
    value {
      list {
        shape {
          dim {
            size: 3
          }
        }
      }
    }
  }
  attr {
    key: "axis"
    value {
      i: 0
    }
  }
}
node {
  name: "DeserializeSparse_5"
  op: "DeserializeSparse"
  input: "IteratorGetNext:5"
  attr {
    key: "Tserialized"
    value {
      type: DT_VARIANT
    }
  }
  attr {
    key: "_output_shapes"
    value {
      list {
        shape {
          dim {
            size: -1
          }
          dim {
            size: 3
          }
        }
        shape {
          dim {
            size: -1
          }
        }
        shape {
          dim {
            size: -1
          }
        }
      }
    }
  }
  attr {
    key: "dtype"
    value {
      type: DT_FLOAT
    }
  }
}
node {
  name: "unstack_5"
  op: "Unpack"
  input: "DeserializeSparse_5:2"
  attr {
    key: "T"
    value {
      type: DT_INT64
    }
  }
  attr {
    key: "_output_shapes"
    value {
      list {
        shape {
        }
        shape {
        }
        shape {
        }
      }
    }
  }
  attr {
    key: "axis"
    value {
      i: 0
    }
  }
  attr {
    key: "num"
    value {
      i: 3
    }
  }
}
node {
  name: "Const_5"
  op: "Const"
  attr {
    key: "_output_shapes"
    value {
      list {
        shape {
        }
      }
    }
  }
  attr {
    key: "dtype"
    value {
      type: DT_INT64
    }
  }
  attr {
    key: "value"
    value {
      tensor {
        dtype: DT_INT64
        tensor_shape {
        }
        int64_val: 64
      }
    }
  }
}
node {
  name: "stack_5"
  op: "Pack"
  input: "Const_5"
  input: "unstack_5:1"
  input: "unstack_5:2"
  attr {
    key: "N"
    value {
      i: 3
    }
  }
  attr {
    key: "T"
    value {
      type: DT_INT64
    }
  }
  attr {
    key: "_output_shapes"
    value {
      list {
        shape {
          dim {
            size: 3
          }
        }
      }
    }
  }
  attr {
    key: "axis"
    value {
      i: 0
    }
  }
}
node {
  name: "DeserializeSparse_6"
  op: "DeserializeSparse"
  input: "IteratorGetNext:6"
  attr {
    key: "Tserialized"
    value {
      type: DT_VARIANT
    }
  }
  attr {
    key: "_output_shapes"
    value {
      list {
        shape {
          dim {
            size: -1
          }
          dim {
            size: 3
          }
        }
        shape {
          dim {
            size: -1
          }
        }
        shape {
          dim {
            size: -1
          }
        }
      }
    }
  }
  attr {
    key: "dtype"
    value {
      type: DT_FLOAT
    }
  }
}
node {
  name: "unstack_6"
  op: "Unpack"
  input: "DeserializeSparse_6:2"
  attr {
    key: "T"
    value {
      type: DT_INT64
    }
  }
  attr {
    key: "_output_shapes"
    value {
      list {
        shape {
        }
        shape {
        }
        shape {
        }
      }
    }
  }
  attr {
    key: "axis"
    value {
      i: 0
    }
  }
  attr {
    key: "num"
    value {
      i: 3
    }
  }
}
node {
  name: "Const_6"
  op: "Const"
  attr {
    key: "_output_shapes"
    value {
      list {
        shape {
        }
      }
    }
  }
  attr {
    key: "dtype"
    value {
      type: DT_INT64
    }
  }
  attr {
    key: "value"
    value {
      tensor {
        dtype: DT_INT64
        tensor_shape {
        }
        int64_val: 64
      }
    }
  }
}
node {
  name: "stack_6"
  op: "Pack"
  input: "Const_6"
  input: "unstack_6:1"
  input: "unstack_6:2"
  attr {
    key: "N"
    value {
      i: 3
    }
  }
  attr {
    key: "T"
    value {
      type: DT_INT64
    }
  }
  attr {
    key: "_output_shapes"
    value {
      list {
        shape {
          dim {
            size: 3
          }
        }
      }
    }
  }
  attr {
    key: "axis"
    value {
      i: 0
    }
  }
}
node {
  name: "rnn_model/sequence_input_layer/sequence_features/bas_rq/SparseToDense/default_value"
  op: "Const"
  attr {
    key: "_output_shapes"
    value {
      list {
        shape {
        }
      }
    }
  }
  attr {
    key: "dtype"
    value {
      type: DT_FLOAT
    }
  }
  attr {
    key: "value"
    value {
      tensor {
        dtype: DT_FLOAT
        tensor_shape {
        }
        float_val: 0.0
      }
    }
  }
}
node {
  name: "rnn_model/sequence_input_layer/sequence_features/bas_rq/SparseToDense"
  op: "SparseToDense"
  input: "DeserializeSparse"
  input: "stack"
  input: "DeserializeSparse:1"
  input: "rnn_model/sequence_input_layer/sequence_features/bas_rq/SparseToDense/default_value"
  attr {
    key: "T"
    value {
      type: DT_FLOAT
    }
  }
  attr {
    key: "Tindices"
    value {
      type: DT_INT64
    }
  }
  attr {
    key: "_output_shapes"
    value {
      list {
        shape {
          dim {
            size: 64
          }
          dim {
            size: -1
          }
          dim {
            size: -1
          }
        }
      }
    }
  }
  attr {
    key: "validate_indices"
    value {
      b: true
    }
  }
}
node {
  name: "rnn_model/sequence_input_layer/sequence_features/bas_rq/Shape"
  op: "Shape"
  input: "rnn_model/sequence_input_layer/sequence_features/bas_rq/SparseToDense"
  attr {
    key: "T"
    value {
      type: DT_FLOAT
    }
  }
  attr {
    key: "_output_shapes"
    value {
      list {
        shape {
          dim {
            size: 3
          }
        }
      }
    }
  }
  attr {
    key: "out_type"
    value {
      type: DT_INT32
    }
  }
}
node {
  name: "rnn_model/sequence_input_layer/sequence_features/bas_rq/strided_slice/stack"
  op: "Const"
  attr {
    key: "_output_shapes"
    value {
      list {
        shape {
          dim {
            size: 1
          }
        }
      }
    }
  }
  attr {
    key: "dtype"
    value {
      type: DT_INT32
    }
  }
  attr {
    key: "value"
    value {
      tensor {
        dtype: DT_INT32
        tensor_shape {
          dim {
            size: 1
          }
        }
        int_val: 0
      }
    }
  }
}
node {
  name: "rnn_model/sequence_input_layer/sequence_features/bas_rq/strided_slice/stack_1"
  op: "Const"
  attr {
    key: "_output_shapes"
    value {
      list {
        shape {
          dim {
            size: 1
          }
        }
      }
    }
  }
  attr {
    key: "dtype"
    value {
      type: DT_INT32
    }
  }
  attr {
    key: "value"
    value {
      tensor {
        dtype: DT_INT32
        tensor_shape {
          dim {
            size: 1
          }
        }
        int_val: 1
      }
    }
  }
}
node {
  name: "rnn_model/sequence_input_layer/sequence_features/bas_rq/strided_slice/stack_2"
  op: "Const"
  attr {
    key: "_output_shapes"
    value {
      list {
        shape {
          dim {
            size: 1
          }
        }
      }
    }
  }
  attr {
    key: "dtype"
    value {
      type: DT_INT32
    }
  }
  attr {
    key: "value"
    value {
      tensor {
        dtype: DT_INT32
        tensor_shape {
          dim {
            size: 1
          }
        }
        int_val: 1
      }
    }
  }
}
node {
  name: "rnn_model/sequence_input_layer/sequence_features/bas_rq/strided_slice"
  op: "StridedSlice"
  input: "rnn_model/sequence_input_layer/sequence_features/bas_rq/Shape"
  input: "rnn_model/sequence_input_layer/sequence_features/bas_rq/strided_slice/stack"
  input: "rnn_model/sequence_input_layer/sequence_features/bas_rq/strided_slice/stack_1"
  input: "rnn_model/sequence_input_layer/sequence_features/bas_rq/strided_slice/stack_2"
  attr {
    key: "Index"
    value {
      type: DT_INT32
    }
  }
  attr {
    key: "T"
    value {
      type: DT_INT32
    }
  }
  attr {
    key: "_output_shapes"
    value {
      list {
        shape {
          dim {
            size: 1
          }
        }
      }
    }
  }
  attr {
    key: "begin_mask"
    value {
      i: 1
    }
  }
  attr {
    key: "ellipsis_mask"
    value {
      i: 0
    }
  }
  attr {
    key: "end_mask"
    value {
      i: 0
    }
  }
  attr {
    key: "new_axis_mask"
    value {
      i: 0
    }
  }
  attr {
    key: "shrink_axis_mask"
    value {
      i: 0
    }
  }
}
node {
  name: "rnn_model/sequence_input_layer/sequence_features/bas_rq/concat/values_1"
  op: "Const"
  attr {
    key: "_output_shapes"
    value {
      list {
        shape {
          dim {
            size: 1
          }
        }
      }
    }
  }
  attr {
    key: "dtype"
    value {
      type: DT_INT32
    }
  }
  attr {
    key: "value"
    value {
      tensor {
        dtype: DT_INT32
        tensor_shape {
          dim {
            size: 1
          }
        }
        int_val: -1
      }
    }
  }
}
node {
  name: "rnn_model/sequence_input_layer/sequence_features/bas_rq/concat/values_2"
  op: "Const"
  attr {
    key: "_output_shapes"
    value {
      list {
        shape {
          dim {
            size: 1
          }
        }
      }
    }
  }
  attr {
    key: "dtype"
    value {
      type: DT_INT32
    }
  }
  attr {
    key: "value"
    value {
      tensor {
        dtype: DT_INT32
        tensor_shape {
          dim {
            size: 1
          }
        }
        int_val: 1
      }
    }
  }
}
node {
  name: "rnn_model/sequence_input_layer/sequence_features/bas_rq/concat/axis"
  op: "Const"
  attr {
    key: "_output_shapes"
    value {
      list {
        shape {
        }
      }
    }
  }
  attr {
    key: "dtype"
    value {
      type: DT_INT32
    }
  }
  attr {
    key: "value"
    value {
      tensor {
        dtype: DT_INT32
        tensor_shape {
        }
        int_val: 0
      }
    }
  }
}
node {
  name: "rnn_model/sequence_input_layer/sequence_features/bas_rq/concat"
  op: "ConcatV2"
  input: "rnn_model/sequence_input_layer/sequence_features/bas_rq/strided_slice"
  input: "rnn_model/sequence_input_layer/sequence_features/bas_rq/concat/values_1"
  input: "rnn_model/sequence_input_layer/sequence_features/bas_rq/concat/values_2"
  input: "rnn_model/sequence_input_layer/sequence_features/bas_rq/concat/axis"
  attr {
    key: "N"
    value {
      i: 3
    }
  }
  attr {
    key: "T"
    value {
      type: DT_INT32
    }
  }
  attr {
    key: "Tidx"
    value {
      type: DT_INT32
    }
  }
  attr {
    key: "_output_shapes"
    value {
      list {
        shape {
          dim {
            size: 3
          }
        }
      }
    }
  }
}
node {
  name: "rnn_model/sequence_input_layer/sequence_features/bas_rq/Reshape"
  op: "Reshape"
  input: "rnn_model/sequence_input_layer/sequence_features/bas_rq/SparseToDense"
  input: "rnn_model/sequence_input_layer/sequence_features/bas_rq/concat"
  attr {
    key: "T"
    value {
      type: DT_FLOAT
    }
  }
  attr {
    key: "Tshape"
    value {
      type: DT_INT32
    }
  }
  attr {
    key: "_output_shapes"
    value {
      list {
        shape {
          dim {
            size: 64
          }
          dim {
            size: -1
          }
          dim {
            size: 1
          }
        }
      }
    }
  }
}
node {
  name: "rnn_model/sequence_input_layer/sequence_features/bas_rq/sequence_length/strided_slice/stack"
  op: "Const"
  attr {
    key: "_output_shapes"
    value {
      list {
        shape {
          dim {
            size: 2
          }
        }
      }
    }
  }
  attr {
    key: "dtype"
    value {
      type: DT_INT32
    }
  }
  attr {
    key: "value"
    value {
      tensor {
        dtype: DT_INT32
        tensor_shape {
          dim {
            size: 2
          }
        }
        tensor_content: "\000\000\000\000\000\000\000\000"
      }
    }
  }
}
node {
  name: "rnn_model/sequence_input_layer/sequence_features/bas_rq/sequence_length/strided_slice/stack_1"
  op: "Const"
  attr {
    key: "_output_shapes"
    value {
      list {
        shape {
          dim {
            size: 2
          }
        }
      }
    }
  }
  attr {
    key: "dtype"
    value {
      type: DT_INT32
    }
  }
  attr {
    key: "value"
    value {
      tensor {
        dtype: DT_INT32
        tensor_shape {
          dim {
            size: 2
          }
        }
        tensor_content: "\000\000\000\000\001\000\000\000"
      }
    }
  }
}
node {
  name: "rnn_model/sequence_input_layer/sequence_features/bas_rq/sequence_length/strided_slice/stack_2"
  op: "Const"
  attr {
    key: "_output_shapes"
    value {
      list {
        shape {
          dim {
            size: 2
          }
        }
      }
    }
  }
  attr {
    key: "dtype"
    value {
      type: DT_INT32
    }
  }
  attr {
    key: "value"
    value {
      tensor {
        dtype: DT_INT32
        tensor_shape {
          dim {
            size: 2
          }
        }
        tensor_content: "\001\000\000\000\001\000\000\000"
      }
    }
  }
}
node {
  name: "rnn_model/sequence_input_layer/sequence_features/bas_rq/sequence_length/strided_slice"
  op: "StridedSlice"
  input: "DeserializeSparse"
  input: "rnn_model/sequence_input_layer/sequence_features/bas_rq/sequence_length/strided_slice/stack"
  input: "rnn_model/sequence_input_layer/sequence_features/bas_rq/sequence_length/strided_slice/stack_1"
  input: "rnn_model/sequence_input_layer/sequence_features/bas_rq/sequence_length/strided_slice/stack_2"
  attr {
    key: "Index"
    value {
      type: DT_INT32
    }
  }
  attr {
    key: "T"
    value {
      type: DT_INT64
    }
  }
  attr {
    key: "_output_shapes"
    value {
      list {
        shape {
          dim {
            size: -1
          }
        }
      }
    }
  }
  attr {
    key: "begin_mask"
    value {
      i: 1
    }
  }
  attr {
    key: "ellipsis_mask"
    value {
      i: 0
    }
  }
  attr {
    key: "end_mask"
    value {
      i: 1
    }
  }
  attr {
    key: "new_axis_mask"
    value {
      i: 0
    }
  }
  attr {
    key: "shrink_axis_mask"
    value {
      i: 2
    }
  }
}
node {
  name: "rnn_model/sequence_input_layer/sequence_features/bas_rq/sequence_length/strided_slice_1/stack"
  op: "Const"
  attr {
    key: "_output_shapes"
    value {
      list {
        shape {
          dim {
            size: 2
          }
        }
      }
    }
  }
  attr {
    key: "dtype"
    value {
      type: DT_INT32
    }
  }
  attr {
    key: "value"
    value {
      tensor {
        dtype: DT_INT32
        tensor_shape {
          dim {
            size: 2
          }
        }
        tensor_content: "\000\000\000\000\001\000\000\000"
      }
    }
  }
}
node {
  name: "rnn_model/sequence_input_layer/sequence_features/bas_rq/sequence_length/strided_slice_1/stack_1"
  op: "Const"
  attr {
    key: "_output_shapes"
    value {
      list {
        shape {
          dim {
            size: 2
          }
        }
      }
    }
  }
  attr {
    key: "dtype"
    value {
      type: DT_INT32
    }
  }
  attr {
    key: "value"
    value {
      tensor {
        dtype: DT_INT32
        tensor_shape {
          dim {
            size: 2
          }
        }
        tensor_content: "\000\000\000\000\002\000\000\000"
      }
    }
  }
}
node {
  name: "rnn_model/sequence_input_layer/sequence_features/bas_rq/sequence_length/strided_slice_1/stack_2"
  op: "Const"
  attr {
    key: "_output_shapes"
    value {
      list {
        shape {
          dim {
            size: 2
          }
        }
      }
    }
  }
  attr {
    key: "dtype"
    value {
      type: DT_INT32
    }
  }
  attr {
    key: "value"
    value {
      tensor {
        dtype: DT_INT32
        tensor_shape {
          dim {
            size: 2
          }
        }
        tensor_content: "\001\000\000\000\001\000\000\000"
      }
    }
  }
}
node {
  name: "rnn_model/sequence_input_layer/sequence_features/bas_rq/sequence_length/strided_slice_1"
  op: "StridedSlice"
  input: "DeserializeSparse"
  input: "rnn_model/sequence_input_layer/sequence_features/bas_rq/sequence_length/strided_slice_1/stack"
  input: "rnn_model/sequence_input_layer/sequence_features/bas_rq/sequence_length/strided_slice_1/stack_1"
  input: "rnn_model/sequence_input_layer/sequence_features/bas_rq/sequence_length/strided_slice_1/stack_2"
  attr {
    key: "Index"
    value {
      type: DT_INT32
    }
  }
  attr {
    key: "T"
    value {
      type: DT_INT64
    }
  }
  attr {
    key: "_output_shapes"
    value {
      list {
        shape {
          dim {
            size: -1
          }
        }
      }
    }
  }
  attr {
    key: "begin_mask"
    value {
      i: 1
    }
  }
  attr {
    key: "ellipsis_mask"
    value {
      i: 0
    }
  }
  attr {
    key: "end_mask"
    value {
      i: 1
    }
  }
  attr {
    key: "new_axis_mask"
    value {
      i: 0
    }
  }
  attr {
    key: "shrink_axis_mask"
    value {
      i: 2
    }
  }
}
node {
  name: "rnn_model/sequence_input_layer/sequence_features/bas_rq/sequence_length/ones_like/Shape"
  op: "Shape"
  input: "rnn_model/sequence_input_layer/sequence_features/bas_rq/sequence_length/strided_slice_1"
  attr {
    key: "T"
    value {
      type: DT_INT64
    }
  }
  attr {
    key: "_output_shapes"
    value {
      list {
        shape {
          dim {
            size: 1
          }
        }
      }
    }
  }
  attr {
    key: "out_type"
    value {
      type: DT_INT32
    }
  }
}
node {
  name: "rnn_model/sequence_input_layer/sequence_features/bas_rq/sequence_length/ones_like/Const"
  op: "Const"
  attr {
    key: "_output_shapes"
    value {
      list {
        shape {
        }
      }
    }
  }
  attr {
    key: "dtype"
    value {
      type: DT_INT64
    }
  }
  attr {
    key: "value"
    value {
      tensor {
        dtype: DT_INT64
        tensor_shape {
        }
        int64_val: 1
      }
    }
  }
}
node {
  name: "rnn_model/sequence_input_layer/sequence_features/bas_rq/sequence_length/ones_like"
  op: "Fill"
  input: "rnn_model/sequence_input_layer/sequence_features/bas_rq/sequence_length/ones_like/Shape"
  input: "rnn_model/sequence_input_layer/sequence_features/bas_rq/sequence_length/ones_like/Const"
  attr {
    key: "T"
    value {
      type: DT_INT64
    }
  }
  attr {
    key: "_output_shapes"
    value {
      list {
        shape {
          dim {
            size: -1
          }
        }
      }
    }
  }
  attr {
    key: "index_type"
    value {
      type: DT_INT32
    }
  }
}
node {
  name: "rnn_model/sequence_input_layer/sequence_features/bas_rq/sequence_length/add"
  op: "AddV2"
  input: "rnn_model/sequence_input_layer/sequence_features/bas_rq/sequence_length/strided_slice_1"
  input: "rnn_model/sequence_input_layer/sequence_features/bas_rq/sequence_length/ones_like"
  attr {
    key: "T"
    value {
      type: DT_INT64
    }
  }
  attr {
    key: "_output_shapes"
    value {
      list {
        shape {
          dim {
            size: -1
          }
        }
      }
    }
  }
}
node {
  name: "rnn_model/sequence_input_layer/sequence_features/bas_rq/sequence_length/SegmentMax"
  op: "SegmentMax"
  input: "rnn_model/sequence_input_layer/sequence_features/bas_rq/sequence_length/add"
  input: "rnn_model/sequence_input_layer/sequence_features/bas_rq/sequence_length/strided_slice"
  attr {
    key: "T"
    value {
      type: DT_INT64
    }
  }
  attr {
    key: "Tindices"
    value {
      type: DT_INT64
    }
  }
  attr {
    key: "_output_shapes"
    value {
      list {
        shape {
          dim {
            size: -1
          }
        }
      }
    }
  }
}
node {
  name: "rnn_model/sequence_input_layer/sequence_features/bas_rq/sequence_length/truediv/y"
  op: "Const"
  attr {
    key: "_output_shapes"
    value {
      list {
        shape {
        }
      }
    }
  }
  attr {
    key: "dtype"
    value {
      type: DT_INT64
    }
  }
  attr {
    key: "value"
    value {
      tensor {
        dtype: DT_INT64
        tensor_shape {
        }
        int64_val: 1
      }
    }
  }
}
node {
  name: "rnn_model/sequence_input_layer/sequence_features/bas_rq/sequence_length/truediv/Cast"
  op: "Cast"
  input: "rnn_model/sequence_input_layer/sequence_features/bas_rq/sequence_length/SegmentMax"
  attr {
    key: "DstT"
    value {
      type: DT_DOUBLE
    }
  }
  attr {
    key: "SrcT"
    value {
      type: DT_INT64
    }
  }
  attr {
    key: "Truncate"
    value {
      b: false
    }
  }
  attr {
    key: "_output_shapes"
    value {
      list {
        shape {
          dim {
            size: -1
          }
        }
      }
    }
  }
}
node {
  name: "rnn_model/sequence_input_layer/sequence_features/bas_rq/sequence_length/truediv/Cast_1"
  op: "Cast"
  input: "rnn_model/sequence_input_layer/sequence_features/bas_rq/sequence_length/truediv/y"
  attr {
    key: "DstT"
    value {
      type: DT_DOUBLE
    }
  }
  attr {
    key: "SrcT"
    value {
      type: DT_INT64
    }
  }
  attr {
    key: "Truncate"
    value {
      b: false
    }
  }
  attr {
    key: "_output_shapes"
    value {
      list {
        shape {
        }
      }
    }
  }
}
node {
  name: "rnn_model/sequence_input_layer/sequence_features/bas_rq/sequence_length/truediv"
  op: "RealDiv"
  input: "rnn_model/sequence_input_layer/sequence_features/bas_rq/sequence_length/truediv/Cast"
  input: "rnn_model/sequence_input_layer/sequence_features/bas_rq/sequence_length/truediv/Cast_1"
  attr {
    key: "T"
    value {
      type: DT_DOUBLE
    }
  }
  attr {
    key: "_output_shapes"
    value {
      list {
        shape {
          dim {
            size: -1
          }
        }
      }
    }
  }
}
node {
  name: "rnn_model/sequence_input_layer/sequence_features/bas_rq/sequence_length/Ceil"
  op: "Ceil"
  input: "rnn_model/sequence_input_layer/sequence_features/bas_rq/sequence_length/truediv"
  attr {
    key: "T"
    value {
      type: DT_DOUBLE
    }
  }
  attr {
    key: "_output_shapes"
    value {
      list {
        shape {
          dim {
            size: -1
          }
        }
      }
    }
  }
}
node {
  name: "rnn_model/sequence_input_layer/sequence_features/bas_rq/sequence_length/Cast"
  op: "Cast"
  input: "rnn_model/sequence_input_layer/sequence_features/bas_rq/sequence_length/Ceil"
  attr {
    key: "DstT"
    value {
      type: DT_INT64
    }
  }
  attr {
    key: "SrcT"
    value {
      type: DT_DOUBLE
    }
  }
  attr {
    key: "Truncate"
    value {
      b: false
    }
  }
  attr {
    key: "_output_shapes"
    value {
      list {
        shape {
          dim {
            size: -1
          }
        }
      }
    }
  }
}
node {
  name: "rnn_model/sequence_input_layer/sequence_features/bas_rq/sequence_length/Shape/Cast"
  op: "Cast"
  input: "stack"
  attr {
    key: "DstT"
    value {
      type: DT_INT32
    }
  }
  attr {
    key: "SrcT"
    value {
      type: DT_INT64
    }
  }
  attr {
    key: "Truncate"
    value {
      b: false
    }
  }
  attr {
    key: "_output_shapes"
    value {
      list {
        shape {
          dim {
            size: 3
          }
        }
      }
    }
  }
}
node {
  name: "rnn_model/sequence_input_layer/sequence_features/bas_rq/sequence_length/strided_slice_2/stack"
  op: "Const"
  attr {
    key: "_output_shapes"
    value {
      list {
        shape {
          dim {
            size: 1
          }
        }
      }
    }
  }
  attr {
    key: "dtype"
    value {
      type: DT_INT32
    }
  }
  attr {
    key: "value"
    value {
      tensor {
        dtype: DT_INT32
        tensor_shape {
          dim {
            size: 1
          }
        }
        int_val: 0
      }
    }
  }
}
node {
  name: "rnn_model/sequence_input_layer/sequence_features/bas_rq/sequence_length/strided_slice_2/stack_1"
  op: "Const"
  attr {
    key: "_output_shapes"
    value {
      list {
        shape {
          dim {
            size: 1
          }
        }
      }
    }
  }
  attr {
    key: "dtype"
    value {
      type: DT_INT32
    }
  }
  attr {
    key: "value"
    value {
      tensor {
        dtype: DT_INT32
        tensor_shape {
          dim {
            size: 1
          }
        }
        int_val: 1
      }
    }
  }
}
node {
  name: "rnn_model/sequence_input_layer/sequence_features/bas_rq/sequence_length/strided_slice_2/stack_2"
  op: "Const"
  attr {
    key: "_output_shapes"
    value {
      list {
        shape {
          dim {
            size: 1
          }
        }
      }
    }
  }
  attr {
    key: "dtype"
    value {
      type: DT_INT32
    }
  }
  attr {
    key: "value"
    value {
      tensor {
        dtype: DT_INT32
        tensor_shape {
          dim {
            size: 1
          }
        }
        int_val: 1
      }
    }
  }
}
node {
  name: "rnn_model/sequence_input_layer/sequence_features/bas_rq/sequence_length/strided_slice_2"
  op: "StridedSlice"
  input: "rnn_model/sequence_input_layer/sequence_features/bas_rq/sequence_length/Shape/Cast"
  input: "rnn_model/sequence_input_layer/sequence_features/bas_rq/sequence_length/strided_slice_2/stack"
  input: "rnn_model/sequence_input_layer/sequence_features/bas_rq/sequence_length/strided_slice_2/stack_1"
  input: "rnn_model/sequence_input_layer/sequence_features/bas_rq/sequence_length/strided_slice_2/stack_2"
  attr {
    key: "Index"
    value {
      type: DT_INT32
    }
  }
  attr {
    key: "T"
    value {
      type: DT_INT32
    }
  }
  attr {
    key: "_output_shapes"
    value {
      list {
        shape {
          dim {
            size: 1
          }
        }
      }
    }
  }
  attr {
    key: "begin_mask"
    value {
      i: 1
    }
  }
  attr {
    key: "ellipsis_mask"
    value {
      i: 0
    }
  }
  attr {
    key: "end_mask"
    value {
      i: 0
    }
  }
  attr {
    key: "new_axis_mask"
    value {
      i: 0
    }
  }
  attr {
    key: "shrink_axis_mask"
    value {
      i: 0
    }
  }
}
node {
  name: "rnn_model/sequence_input_layer/sequence_features/bas_rq/sequence_length/Shape_1"
  op: "Shape"
  input: "rnn_model/sequence_input_layer/sequence_features/bas_rq/sequence_length/Cast"
  attr {
    key: "T"
    value {
      type: DT_INT64
    }
  }
  attr {
    key: "_output_shapes"
    value {
      list {
        shape {
          dim {
            size: 1
          }
        }
      }
    }
  }
  attr {
    key: "out_type"
    value {
      type: DT_INT32
    }
  }
}
node {
  name: "rnn_model/sequence_input_layer/sequence_features/bas_rq/sequence_length/strided_slice_3/stack"
  op: "Const"
  attr {
    key: "_output_shapes"
    value {
      list {
        shape {
          dim {
            size: 1
          }
        }
      }
    }
  }
  attr {
    key: "dtype"
    value {
      type: DT_INT32
    }
  }
  attr {
    key: "value"
    value {
      tensor {
        dtype: DT_INT32
        tensor_shape {
          dim {
            size: 1
          }
        }
        int_val: 0
      }
    }
  }
}
node {
  name: "rnn_model/sequence_input_layer/sequence_features/bas_rq/sequence_length/strided_slice_3/stack_1"
  op: "Const"
  attr {
    key: "_output_shapes"
    value {
      list {
        shape {
          dim {
            size: 1
          }
        }
      }
    }
  }
  attr {
    key: "dtype"
    value {
      type: DT_INT32
    }
  }
  attr {
    key: "value"
    value {
      tensor {
        dtype: DT_INT32
        tensor_shape {
          dim {
            size: 1
          }
        }
        int_val: 1
      }
    }
  }
}
node {
  name: "rnn_model/sequence_input_layer/sequence_features/bas_rq/sequence_length/strided_slice_3/stack_2"
  op: "Const"
  attr {
    key: "_output_shapes"
    value {
      list {
        shape {
          dim {
            size: 1
          }
        }
      }
    }
  }
  attr {
    key: "dtype"
    value {
      type: DT_INT32
    }
  }
  attr {
    key: "value"
    value {
      tensor {
        dtype: DT_INT32
        tensor_shape {
          dim {
            size: 1
          }
        }
        int_val: 1
      }
    }
  }
}
node {
  name: "rnn_model/sequence_input_layer/sequence_features/bas_rq/sequence_length/strided_slice_3"
  op: "StridedSlice"
  input: "rnn_model/sequence_input_layer/sequence_features/bas_rq/sequence_length/Shape_1"
  input: "rnn_model/sequence_input_layer/sequence_features/bas_rq/sequence_length/strided_slice_3/stack"
  input: "rnn_model/sequence_input_layer/sequence_features/bas_rq/sequence_length/strided_slice_3/stack_1"
  input: "rnn_model/sequence_input_layer/sequence_features/bas_rq/sequence_length/strided_slice_3/stack_2"
  attr {
    key: "Index"
    value {
      type: DT_INT32
    }
  }
  attr {
    key: "T"
    value {
      type: DT_INT32
    }
  }
  attr {
    key: "_output_shapes"
    value {
      list {
        shape {
          dim {
            size: 1
          }
        }
      }
    }
  }
  attr {
    key: "begin_mask"
    value {
      i: 1
    }
  }
  attr {
    key: "ellipsis_mask"
    value {
      i: 0
    }
  }
  attr {
    key: "end_mask"
    value {
      i: 0
    }
  }
  attr {
    key: "new_axis_mask"
    value {
      i: 0
    }
  }
  attr {
    key: "shrink_axis_mask"
    value {
      i: 0
    }
  }
}
node {
  name: "rnn_model/sequence_input_layer/sequence_features/bas_rq/sequence_length/sub"
  op: "Sub"
  input: "rnn_model/sequence_input_layer/sequence_features/bas_rq/sequence_length/strided_slice_2"
  input: "rnn_model/sequence_input_layer/sequence_features/bas_rq/sequence_length/strided_slice_3"
  attr {
    key: "T"
    value {
      type: DT_INT32
    }
  }
  attr {
    key: "_output_shapes"
    value {
      list {
        shape {
          dim {
            size: 1
          }
        }
      }
    }
  }
}
node {
  name: "rnn_model/sequence_input_layer/sequence_features/bas_rq/sequence_length/zeros/Const"
  op: "Const"
  attr {
    key: "_output_shapes"
    value {
      list {
        shape {
        }
      }
    }
  }
  attr {
    key: "dtype"
    value {
      type: DT_INT64
    }
  }
  attr {
    key: "value"
    value {
      tensor {
        dtype: DT_INT64
        tensor_shape {
        }
        int64_val: 0
      }
    }
  }
}
node {
  name: "rnn_model/sequence_input_layer/sequence_features/bas_rq/sequence_length/zeros"
  op: "Fill"
  input: "rnn_model/sequence_input_layer/sequence_features/bas_rq/sequence_length/sub"
  input: "rnn_model/sequence_input_layer/sequence_features/bas_rq/sequence_length/zeros/Const"
  attr {
    key: "T"
    value {
      type: DT_INT64
    }
  }
  attr {
    key: "_output_shapes"
    value {
      list {
        shape {
          dim {
            size: -1
          }
        }
      }
    }
  }
  attr {
    key: "index_type"
    value {
      type: DT_INT32
    }
  }
}
node {
  name: "rnn_model/sequence_input_layer/sequence_features/bas_rq/sequence_length/axis"
  op: "Const"
  attr {
    key: "_output_shapes"
    value {
      list {
        shape {
        }
      }
    }
  }
  attr {
    key: "dtype"
    value {
      type: DT_INT32
    }
  }
  attr {
    key: "value"
    value {
      tensor {
        dtype: DT_INT32
        tensor_shape {
        }
        int_val: 0
      }
    }
  }
}
node {
  name: "rnn_model/sequence_input_layer/sequence_features/bas_rq/sequence_length"
  op: "ConcatV2"
  input: "rnn_model/sequence_input_layer/sequence_features/bas_rq/sequence_length/Cast"
  input: "rnn_model/sequence_input_layer/sequence_features/bas_rq/sequence_length/zeros"
  input: "rnn_model/sequence_input_layer/sequence_features/bas_rq/sequence_length/axis"
  attr {
    key: "N"
    value {
      i: 2
    }
  }
  attr {
    key: "T"
    value {
      type: DT_INT64
    }
  }
  attr {
    key: "Tidx"
    value {
      type: DT_INT32
    }
  }
  attr {
    key: "_output_shapes"
    value {
      list {
        shape {
          dim {
            size: -1
          }
        }
      }
    }
  }
}
node {
  name: "rnn_model/sequence_input_layer/sequence_features/bas_rq/Shape_1"
  op: "Shape"
  input: "rnn_model/sequence_input_layer/sequence_features/bas_rq/Reshape"
  attr {
    key: "T"
    value {
      type: DT_FLOAT
    }
  }
  attr {
    key: "_output_shapes"
    value {
      list {
        shape {
          dim {
            size: 3
          }
        }
      }
    }
  }
  attr {
    key: "out_type"
    value {
      type: DT_INT32
    }
  }
}
node {
  name: "rnn_model/sequence_input_layer/sequence_features/bas_rq/strided_slice_1/stack"
  op: "Const"
  attr {
    key: "_output_shapes"
    value {
      list {
        shape {
          dim {
            size: 1
          }
        }
      }
    }
  }
  attr {
    key: "dtype"
    value {
      type: DT_INT32
    }
  }
  attr {
    key: "value"
    value {
      tensor {
        dtype: DT_INT32
        tensor_shape {
          dim {
            size: 1
          }
        }
        int_val: 0
      }
    }
  }
}
node {
  name: "rnn_model/sequence_input_layer/sequence_features/bas_rq/strided_slice_1/stack_1"
  op: "Const"
  attr {
    key: "_output_shapes"
    value {
      list {
        shape {
          dim {
            size: 1
          }
        }
      }
    }
  }
  attr {
    key: "dtype"
    value {
      type: DT_INT32
    }
  }
  attr {
    key: "value"
    value {
      tensor {
        dtype: DT_INT32
        tensor_shape {
          dim {
            size: 1
          }
        }
        int_val: 1
      }
    }
  }
}
node {
  name: "rnn_model/sequence_input_layer/sequence_features/bas_rq/strided_slice_1/stack_2"
  op: "Const"
  attr {
    key: "_output_shapes"
    value {
      list {
        shape {
          dim {
            size: 1
          }
        }
      }
    }
  }
  attr {
    key: "dtype"
    value {
      type: DT_INT32
    }
  }
  attr {
    key: "value"
    value {
      tensor {
        dtype: DT_INT32
        tensor_shape {
          dim {
            size: 1
          }
        }
        int_val: 1
      }
    }
  }
}
node {
  name: "rnn_model/sequence_input_layer/sequence_features/bas_rq/strided_slice_1"
  op: "StridedSlice"
  input: "rnn_model/sequence_input_layer/sequence_features/bas_rq/Shape_1"
  input: "rnn_model/sequence_input_layer/sequence_features/bas_rq/strided_slice_1/stack"
  input: "rnn_model/sequence_input_layer/sequence_features/bas_rq/strided_slice_1/stack_1"
  input: "rnn_model/sequence_input_layer/sequence_features/bas_rq/strided_slice_1/stack_2"
  attr {
    key: "Index"
    value {
      type: DT_INT32
    }
  }
  attr {
    key: "T"
    value {
      type: DT_INT32
    }
  }
  attr {
    key: "_output_shapes"
    value {
      list {
        shape {
        }
      }
    }
  }
  attr {
    key: "begin_mask"
    value {
      i: 0
    }
  }
  attr {
    key: "ellipsis_mask"
    value {
      i: 0
    }
  }
  attr {
    key: "end_mask"
    value {
      i: 0
    }
  }
  attr {
    key: "new_axis_mask"
    value {
      i: 0
    }
  }
  attr {
    key: "shrink_axis_mask"
    value {
      i: 1
    }
  }
}
node {
  name: "rnn_model/sequence_input_layer/sequence_features/bas_rq/strided_slice_2/stack"
  op: "Const"
  attr {
    key: "_output_shapes"
    value {
      list {
        shape {
          dim {
            size: 1
          }
        }
      }
    }
  }
  attr {
    key: "dtype"
    value {
      type: DT_INT32
    }
  }
  attr {
    key: "value"
    value {
      tensor {
        dtype: DT_INT32
        tensor_shape {
          dim {
            size: 1
          }
        }
        int_val: 1
      }
    }
  }
}
node {
  name: "rnn_model/sequence_input_layer/sequence_features/bas_rq/strided_slice_2/stack_1"
  op: "Const"
  attr {
    key: "_output_shapes"
    value {
      list {
        shape {
          dim {
            size: 1
          }
        }
      }
    }
  }
  attr {
    key: "dtype"
    value {
      type: DT_INT32
    }
  }
  attr {
    key: "value"
    value {
      tensor {
        dtype: DT_INT32
        tensor_shape {
          dim {
            size: 1
          }
        }
        int_val: 2
      }
    }
  }
}
node {
  name: "rnn_model/sequence_input_layer/sequence_features/bas_rq/strided_slice_2/stack_2"
  op: "Const"
  attr {
    key: "_output_shapes"
    value {
      list {
        shape {
          dim {
            size: 1
          }
        }
      }
    }
  }
  attr {
    key: "dtype"
    value {
      type: DT_INT32
    }
  }
  attr {
    key: "value"
    value {
      tensor {
        dtype: DT_INT32
        tensor_shape {
          dim {
            size: 1
          }
        }
        int_val: 1
      }
    }
  }
}
node {
  name: "rnn_model/sequence_input_layer/sequence_features/bas_rq/strided_slice_2"
  op: "StridedSlice"
  input: "rnn_model/sequence_input_layer/sequence_features/bas_rq/Shape_1"
  input: "rnn_model/sequence_input_layer/sequence_features/bas_rq/strided_slice_2/stack"
  input: "rnn_model/sequence_input_layer/sequence_features/bas_rq/strided_slice_2/stack_1"
  input: "rnn_model/sequence_input_layer/sequence_features/bas_rq/strided_slice_2/stack_2"
  attr {
    key: "Index"
    value {
      type: DT_INT32
    }
  }
  attr {
    key: "T"
    value {
      type: DT_INT32
    }
  }
  attr {
    key: "_output_shapes"
    value {
      list {
        shape {
        }
      }
    }
  }
  attr {
    key: "begin_mask"
    value {
      i: 0
    }
  }
  attr {
    key: "ellipsis_mask"
    value {
      i: 0
    }
  }
  attr {
    key: "end_mask"
    value {
      i: 0
    }
  }
  attr {
    key: "new_axis_mask"
    value {
      i: 0
    }
  }
  attr {
    key: "shrink_axis_mask"
    value {
      i: 1
    }
  }
}
node {
  name: "rnn_model/sequence_input_layer/sequence_features/bas_rq/Reshape_1/shape/2"
  op: "Const"
  attr {
    key: "_output_shapes"
    value {
      list {
        shape {
        }
      }
    }
  }
  attr {
    key: "dtype"
    value {
      type: DT_INT32
    }
  }
  attr {
    key: "value"
    value {
      tensor {
        dtype: DT_INT32
        tensor_shape {
        }
        int_val: 1
      }
    }
  }
}
node {
  name: "rnn_model/sequence_input_layer/sequence_features/bas_rq/Reshape_1/shape"
  op: "Pack"
  input: "rnn_model/sequence_input_layer/sequence_features/bas_rq/strided_slice_1"
  input: "rnn_model/sequence_input_layer/sequence_features/bas_rq/strided_slice_2"
  input: "rnn_model/sequence_input_layer/sequence_features/bas_rq/Reshape_1/shape/2"
  attr {
    key: "N"
    value {
      i: 3
    }
  }
  attr {
    key: "T"
    value {
      type: DT_INT32
    }
  }
  attr {
    key: "_output_shapes"
    value {
      list {
        shape {
          dim {
            size: 3
          }
        }
      }
    }
  }
  attr {
    key: "axis"
    value {
      i: 0
    }
  }
}
node {
  name: "rnn_model/sequence_input_layer/sequence_features/bas_rq/Reshape_1"
  op: "Reshape"
  input: "rnn_model/sequence_input_layer/sequence_features/bas_rq/Reshape"
  input: "rnn_model/sequence_input_layer/sequence_features/bas_rq/Reshape_1/shape"
  attr {
    key: "T"
    value {
      type: DT_FLOAT
    }
  }
  attr {
    key: "Tshape"
    value {
      type: DT_INT32
    }
  }
  attr {
    key: "_output_shapes"
    value {
      list {
        shape {
          dim {
            size: -1
          }
          dim {
            size: -1
          }
          dim {
            size: 1
          }
        }
      }
    }
  }
}
node {
  name: "rnn_model/sequence_input_layer/sequence_features/cmmc_max/SparseToDense/default_value"
  op: "Const"
  attr {
    key: "_output_shapes"
    value {
      list {
        shape {
        }
      }
    }
  }
  attr {
    key: "dtype"
    value {
      type: DT_FLOAT
    }
  }
  attr {
    key: "value"
    value {
      tensor {
        dtype: DT_FLOAT
        tensor_shape {
        }
        float_val: 0.0
      }
    }
  }
}
node {
  name: "rnn_model/sequence_input_layer/sequence_features/cmmc_max/SparseToDense"
  op: "SparseToDense"
  input: "DeserializeSparse_1"
  input: "stack_1"
  input: "DeserializeSparse_1:1"
  input: "rnn_model/sequence_input_layer/sequence_features/cmmc_max/SparseToDense/default_value"
  attr {
    key: "T"
    value {
      type: DT_FLOAT
    }
  }
  attr {
    key: "Tindices"
    value {
      type: DT_INT64
    }
  }
  attr {
    key: "_output_shapes"
    value {
      list {
        shape {
          dim {
            size: 64
          }
          dim {
            size: -1
          }
          dim {
            size: -1
          }
        }
      }
    }
  }
  attr {
    key: "validate_indices"
    value {
      b: true
    }
  }
}
node {
  name: "rnn_model/sequence_input_layer/sequence_features/cmmc_max/Shape"
  op: "Shape"
  input: "rnn_model/sequence_input_layer/sequence_features/cmmc_max/SparseToDense"
  attr {
    key: "T"
    value {
      type: DT_FLOAT
    }
  }
  attr {
    key: "_output_shapes"
    value {
      list {
        shape {
          dim {
            size: 3
          }
        }
      }
    }
  }
  attr {
    key: "out_type"
    value {
      type: DT_INT32
    }
  }
}
node {
  name: "rnn_model/sequence_input_layer/sequence_features/cmmc_max/strided_slice/stack"
  op: "Const"
  attr {
    key: "_output_shapes"
    value {
      list {
        shape {
          dim {
            size: 1
          }
        }
      }
    }
  }
  attr {
    key: "dtype"
    value {
      type: DT_INT32
    }
  }
  attr {
    key: "value"
    value {
      tensor {
        dtype: DT_INT32
        tensor_shape {
          dim {
            size: 1
          }
        }
        int_val: 0
      }
    }
  }
}
node {
  name: "rnn_model/sequence_input_layer/sequence_features/cmmc_max/strided_slice/stack_1"
  op: "Const"
  attr {
    key: "_output_shapes"
    value {
      list {
        shape {
          dim {
            size: 1
          }
        }
      }
    }
  }
  attr {
    key: "dtype"
    value {
      type: DT_INT32
    }
  }
  attr {
    key: "value"
    value {
      tensor {
        dtype: DT_INT32
        tensor_shape {
          dim {
            size: 1
          }
        }
        int_val: 1
      }
    }
  }
}
node {
  name: "rnn_model/sequence_input_layer/sequence_features/cmmc_max/strided_slice/stack_2"
  op: "Const"
  attr {
    key: "_output_shapes"
    value {
      list {
        shape {
          dim {
            size: 1
          }
        }
      }
    }
  }
  attr {
    key: "dtype"
    value {
      type: DT_INT32
    }
  }
  attr {
    key: "value"
    value {
      tensor {
        dtype: DT_INT32
        tensor_shape {
          dim {
            size: 1
          }
        }
        int_val: 1
      }
    }
  }
}
node {
  name: "rnn_model/sequence_input_layer/sequence_features/cmmc_max/strided_slice"
  op: "StridedSlice"
  input: "rnn_model/sequence_input_layer/sequence_features/cmmc_max/Shape"
  input: "rnn_model/sequence_input_layer/sequence_features/cmmc_max/strided_slice/stack"
  input: "rnn_model/sequence_input_layer/sequence_features/cmmc_max/strided_slice/stack_1"
  input: "rnn_model/sequence_input_layer/sequence_features/cmmc_max/strided_slice/stack_2"
  attr {
    key: "Index"
    value {
      type: DT_INT32
    }
  }
  attr {
    key: "T"
    value {
      type: DT_INT32
    }
  }
  attr {
    key: "_output_shapes"
    value {
      list {
        shape {
          dim {
            size: 1
          }
        }
      }
    }
  }
  attr {
    key: "begin_mask"
    value {
      i: 1
    }
  }
  attr {
    key: "ellipsis_mask"
    value {
      i: 0
    }
  }
  attr {
    key: "end_mask"
    value {
      i: 0
    }
  }
  attr {
    key: "new_axis_mask"
    value {
      i: 0
    }
  }
  attr {
    key: "shrink_axis_mask"
    value {
      i: 0
    }
  }
}
node {
  name: "rnn_model/sequence_input_layer/sequence_features/cmmc_max/concat/values_1"
  op: "Const"
  attr {
    key: "_output_shapes"
    value {
      list {
        shape {
          dim {
            size: 1
          }
        }
      }
    }
  }
  attr {
    key: "dtype"
    value {
      type: DT_INT32
    }
  }
  attr {
    key: "value"
    value {
      tensor {
        dtype: DT_INT32
        tensor_shape {
          dim {
            size: 1
          }
        }
        int_val: -1
      }
    }
  }
}
node {
  name: "rnn_model/sequence_input_layer/sequence_features/cmmc_max/concat/values_2"
  op: "Const"
  attr {
    key: "_output_shapes"
    value {
      list {
        shape {
          dim {
            size: 1
          }
        }
      }
    }
  }
  attr {
    key: "dtype"
    value {
      type: DT_INT32
    }
  }
  attr {
    key: "value"
    value {
      tensor {
        dtype: DT_INT32
        tensor_shape {
          dim {
            size: 1
          }
        }
        int_val: 1
      }
    }
  }
}
node {
  name: "rnn_model/sequence_input_layer/sequence_features/cmmc_max/concat/axis"
  op: "Const"
  attr {
    key: "_output_shapes"
    value {
      list {
        shape {
        }
      }
    }
  }
  attr {
    key: "dtype"
    value {
      type: DT_INT32
    }
  }
  attr {
    key: "value"
    value {
      tensor {
        dtype: DT_INT32
        tensor_shape {
        }
        int_val: 0
      }
    }
  }
}
node {
  name: "rnn_model/sequence_input_layer/sequence_features/cmmc_max/concat"
  op: "ConcatV2"
  input: "rnn_model/sequence_input_layer/sequence_features/cmmc_max/strided_slice"
  input: "rnn_model/sequence_input_layer/sequence_features/cmmc_max/concat/values_1"
  input: "rnn_model/sequence_input_layer/sequence_features/cmmc_max/concat/values_2"
  input: "rnn_model/sequence_input_layer/sequence_features/cmmc_max/concat/axis"
  attr {
    key: "N"
    value {
      i: 3
    }
  }
  attr {
    key: "T"
    value {
      type: DT_INT32
    }
  }
  attr {
    key: "Tidx"
    value {
      type: DT_INT32
    }
  }
  attr {
    key: "_output_shapes"
    value {
      list {
        shape {
          dim {
            size: 3
          }
        }
      }
    }
  }
}
node {
  name: "rnn_model/sequence_input_layer/sequence_features/cmmc_max/Reshape"
  op: "Reshape"
  input: "rnn_model/sequence_input_layer/sequence_features/cmmc_max/SparseToDense"
  input: "rnn_model/sequence_input_layer/sequence_features/cmmc_max/concat"
  attr {
    key: "T"
    value {
      type: DT_FLOAT
    }
  }
  attr {
    key: "Tshape"
    value {
      type: DT_INT32
    }
  }
  attr {
    key: "_output_shapes"
    value {
      list {
        shape {
          dim {
            size: 64
          }
          dim {
            size: -1
          }
          dim {
            size: 1
          }
        }
      }
    }
  }
}
node {
  name: "rnn_model/sequence_input_layer/sequence_features/cmmc_max/sequence_length/strided_slice/stack"
  op: "Const"
  attr {
    key: "_output_shapes"
    value {
      list {
        shape {
          dim {
            size: 2
          }
        }
      }
    }
  }
  attr {
    key: "dtype"
    value {
      type: DT_INT32
    }
  }
  attr {
    key: "value"
    value {
      tensor {
        dtype: DT_INT32
        tensor_shape {
          dim {
            size: 2
          }
        }
        tensor_content: "\000\000\000\000\000\000\000\000"
      }
    }
  }
}
node {
  name: "rnn_model/sequence_input_layer/sequence_features/cmmc_max/sequence_length/strided_slice/stack_1"
  op: "Const"
  attr {
    key: "_output_shapes"
    value {
      list {
        shape {
          dim {
            size: 2
          }
        }
      }
    }
  }
  attr {
    key: "dtype"
    value {
      type: DT_INT32
    }
  }
  attr {
    key: "value"
    value {
      tensor {
        dtype: DT_INT32
        tensor_shape {
          dim {
            size: 2
          }
        }
        tensor_content: "\000\000\000\000\001\000\000\000"
      }
    }
  }
}
node {
  name: "rnn_model/sequence_input_layer/sequence_features/cmmc_max/sequence_length/strided_slice/stack_2"
  op: "Const"
  attr {
    key: "_output_shapes"
    value {
      list {
        shape {
          dim {
            size: 2
          }
        }
      }
    }
  }
  attr {
    key: "dtype"
    value {
      type: DT_INT32
    }
  }
  attr {
    key: "value"
    value {
      tensor {
        dtype: DT_INT32
        tensor_shape {
          dim {
            size: 2
          }
        }
        tensor_content: "\001\000\000\000\001\000\000\000"
      }
    }
  }
}
node {
  name: "rnn_model/sequence_input_layer/sequence_features/cmmc_max/sequence_length/strided_slice"
  op: "StridedSlice"
  input: "DeserializeSparse_1"
  input: "rnn_model/sequence_input_layer/sequence_features/cmmc_max/sequence_length/strided_slice/stack"
  input: "rnn_model/sequence_input_layer/sequence_features/cmmc_max/sequence_length/strided_slice/stack_1"
  input: "rnn_model/sequence_input_layer/sequence_features/cmmc_max/sequence_length/strided_slice/stack_2"
  attr {
    key: "Index"
    value {
      type: DT_INT32
    }
  }
  attr {
    key: "T"
    value {
      type: DT_INT64
    }
  }
  attr {
    key: "_output_shapes"
    value {
      list {
        shape {
          dim {
            size: -1
          }
        }
      }
    }
  }
  attr {
    key: "begin_mask"
    value {
      i: 1
    }
  }
  attr {
    key: "ellipsis_mask"
    value {
      i: 0
    }
  }
  attr {
    key: "end_mask"
    value {
      i: 1
    }
  }
  attr {
    key: "new_axis_mask"
    value {
      i: 0
    }
  }
  attr {
    key: "shrink_axis_mask"
    value {
      i: 2
    }
  }
}
node {
  name: "rnn_model/sequence_input_layer/sequence_features/cmmc_max/sequence_length/strided_slice_1/stack"
  op: "Const"
  attr {
    key: "_output_shapes"
    value {
      list {
        shape {
          dim {
            size: 2
          }
        }
      }
    }
  }
  attr {
    key: "dtype"
    value {
      type: DT_INT32
    }
  }
  attr {
    key: "value"
    value {
      tensor {
        dtype: DT_INT32
        tensor_shape {
          dim {
            size: 2
          }
        }
        tensor_content: "\000\000\000\000\001\000\000\000"
      }
    }
  }
}
node {
  name: "rnn_model/sequence_input_layer/sequence_features/cmmc_max/sequence_length/strided_slice_1/stack_1"
  op: "Const"
  attr {
    key: "_output_shapes"
    value {
      list {
        shape {
          dim {
            size: 2
          }
        }
      }
    }
  }
  attr {
    key: "dtype"
    value {
      type: DT_INT32
    }
  }
  attr {
    key: "value"
    value {
      tensor {
        dtype: DT_INT32
        tensor_shape {
          dim {
            size: 2
          }
        }
        tensor_content: "\000\000\000\000\002\000\000\000"
      }
    }
  }
}
node {
  name: "rnn_model/sequence_input_layer/sequence_features/cmmc_max/sequence_length/strided_slice_1/stack_2"
  op: "Const"
  attr {
    key: "_output_shapes"
    value {
      list {
        shape {
          dim {
            size: 2
          }
        }
      }
    }
  }
  attr {
    key: "dtype"
    value {
      type: DT_INT32
    }
  }
  attr {
    key: "value"
    value {
      tensor {
        dtype: DT_INT32
        tensor_shape {
          dim {
            size: 2
          }
        }
        tensor_content: "\001\000\000\000\001\000\000\000"
      }
    }
  }
}
node {
  name: "rnn_model/sequence_input_layer/sequence_features/cmmc_max/sequence_length/strided_slice_1"
  op: "StridedSlice"
  input: "DeserializeSparse_1"
  input: "rnn_model/sequence_input_layer/sequence_features/cmmc_max/sequence_length/strided_slice_1/stack"
  input: "rnn_model/sequence_input_layer/sequence_features/cmmc_max/sequence_length/strided_slice_1/stack_1"
  input: "rnn_model/sequence_input_layer/sequence_features/cmmc_max/sequence_length/strided_slice_1/stack_2"
  attr {
    key: "Index"
    value {
      type: DT_INT32
    }
  }
  attr {
    key: "T"
    value {
      type: DT_INT64
    }
  }
  attr {
    key: "_output_shapes"
    value {
      list {
        shape {
          dim {
            size: -1
          }
        }
      }
    }
  }
  attr {
    key: "begin_mask"
    value {
      i: 1
    }
  }
  attr {
    key: "ellipsis_mask"
    value {
      i: 0
    }
  }
  attr {
    key: "end_mask"
    value {
      i: 1
    }
  }
  attr {
    key: "new_axis_mask"
    value {
      i: 0
    }
  }
  attr {
    key: "shrink_axis_mask"
    value {
      i: 2
    }
  }
}
node {
  name: "rnn_model/sequence_input_layer/sequence_features/cmmc_max/sequence_length/ones_like/Shape"
  op: "Shape"
  input: "rnn_model/sequence_input_layer/sequence_features/cmmc_max/sequence_length/strided_slice_1"
  attr {
    key: "T"
    value {
      type: DT_INT64
    }
  }
  attr {
    key: "_output_shapes"
    value {
      list {
        shape {
          dim {
            size: 1
          }
        }
      }
    }
  }
  attr {
    key: "out_type"
    value {
      type: DT_INT32
    }
  }
}
node {
  name: "rnn_model/sequence_input_layer/sequence_features/cmmc_max/sequence_length/ones_like/Const"
  op: "Const"
  attr {
    key: "_output_shapes"
    value {
      list {
        shape {
        }
      }
    }
  }
  attr {
    key: "dtype"
    value {
      type: DT_INT64
    }
  }
  attr {
    key: "value"
    value {
      tensor {
        dtype: DT_INT64
        tensor_shape {
        }
        int64_val: 1
      }
    }
  }
}
node {
  name: "rnn_model/sequence_input_layer/sequence_features/cmmc_max/sequence_length/ones_like"
  op: "Fill"
  input: "rnn_model/sequence_input_layer/sequence_features/cmmc_max/sequence_length/ones_like/Shape"
  input: "rnn_model/sequence_input_layer/sequence_features/cmmc_max/sequence_length/ones_like/Const"
  attr {
    key: "T"
    value {
      type: DT_INT64
    }
  }
  attr {
    key: "_output_shapes"
    value {
      list {
        shape {
          dim {
            size: -1
          }
        }
      }
    }
  }
  attr {
    key: "index_type"
    value {
      type: DT_INT32
    }
  }
}
node {
  name: "rnn_model/sequence_input_layer/sequence_features/cmmc_max/sequence_length/add"
  op: "AddV2"
  input: "rnn_model/sequence_input_layer/sequence_features/cmmc_max/sequence_length/strided_slice_1"
  input: "rnn_model/sequence_input_layer/sequence_features/cmmc_max/sequence_length/ones_like"
  attr {
    key: "T"
    value {
      type: DT_INT64
    }
  }
  attr {
    key: "_output_shapes"
    value {
      list {
        shape {
          dim {
            size: -1
          }
        }
      }
    }
  }
}
node {
  name: "rnn_model/sequence_input_layer/sequence_features/cmmc_max/sequence_length/SegmentMax"
  op: "SegmentMax"
  input: "rnn_model/sequence_input_layer/sequence_features/cmmc_max/sequence_length/add"
  input: "rnn_model/sequence_input_layer/sequence_features/cmmc_max/sequence_length/strided_slice"
  attr {
    key: "T"
    value {
      type: DT_INT64
    }
  }
  attr {
    key: "Tindices"
    value {
      type: DT_INT64
    }
  }
  attr {
    key: "_output_shapes"
    value {
      list {
        shape {
          dim {
            size: -1
          }
        }
      }
    }
  }
}
node {
  name: "rnn_model/sequence_input_layer/sequence_features/cmmc_max/sequence_length/truediv/y"
  op: "Const"
  attr {
    key: "_output_shapes"
    value {
      list {
        shape {
        }
      }
    }
  }
  attr {
    key: "dtype"
    value {
      type: DT_INT64
    }
  }
  attr {
    key: "value"
    value {
      tensor {
        dtype: DT_INT64
        tensor_shape {
        }
        int64_val: 1
      }
    }
  }
}
node {
  name: "rnn_model/sequence_input_layer/sequence_features/cmmc_max/sequence_length/truediv/Cast"
  op: "Cast"
  input: "rnn_model/sequence_input_layer/sequence_features/cmmc_max/sequence_length/SegmentMax"
  attr {
    key: "DstT"
    value {
      type: DT_DOUBLE
    }
  }
  attr {
    key: "SrcT"
    value {
      type: DT_INT64
    }
  }
  attr {
    key: "Truncate"
    value {
      b: false
    }
  }
  attr {
    key: "_output_shapes"
    value {
      list {
        shape {
          dim {
            size: -1
          }
        }
      }
    }
  }
}
node {
  name: "rnn_model/sequence_input_layer/sequence_features/cmmc_max/sequence_length/truediv/Cast_1"
  op: "Cast"
  input: "rnn_model/sequence_input_layer/sequence_features/cmmc_max/sequence_length/truediv/y"
  attr {
    key: "DstT"
    value {
      type: DT_DOUBLE
    }
  }
  attr {
    key: "SrcT"
    value {
      type: DT_INT64
    }
  }
  attr {
    key: "Truncate"
    value {
      b: false
    }
  }
  attr {
    key: "_output_shapes"
    value {
      list {
        shape {
        }
      }
    }
  }
}
node {
  name: "rnn_model/sequence_input_layer/sequence_features/cmmc_max/sequence_length/truediv"
  op: "RealDiv"
  input: "rnn_model/sequence_input_layer/sequence_features/cmmc_max/sequence_length/truediv/Cast"
  input: "rnn_model/sequence_input_layer/sequence_features/cmmc_max/sequence_length/truediv/Cast_1"
  attr {
    key: "T"
    value {
      type: DT_DOUBLE
    }
  }
  attr {
    key: "_output_shapes"
    value {
      list {
        shape {
          dim {
            size: -1
          }
        }
      }
    }
  }
}
node {
  name: "rnn_model/sequence_input_layer/sequence_features/cmmc_max/sequence_length/Ceil"
  op: "Ceil"
  input: "rnn_model/sequence_input_layer/sequence_features/cmmc_max/sequence_length/truediv"
  attr {
    key: "T"
    value {
      type: DT_DOUBLE
    }
  }
  attr {
    key: "_output_shapes"
    value {
      list {
        shape {
          dim {
            size: -1
          }
        }
      }
    }
  }
}
node {
  name: "rnn_model/sequence_input_layer/sequence_features/cmmc_max/sequence_length/Cast"
  op: "Cast"
  input: "rnn_model/sequence_input_layer/sequence_features/cmmc_max/sequence_length/Ceil"
  attr {
    key: "DstT"
    value {
      type: DT_INT64
    }
  }
  attr {
    key: "SrcT"
    value {
      type: DT_DOUBLE
    }
  }
  attr {
    key: "Truncate"
    value {
      b: false
    }
  }
  attr {
    key: "_output_shapes"
    value {
      list {
        shape {
          dim {
            size: -1
          }
        }
      }
    }
  }
}
node {
  name: "rnn_model/sequence_input_layer/sequence_features/cmmc_max/sequence_length/Shape/Cast"
  op: "Cast"
  input: "stack_1"
  attr {
    key: "DstT"
    value {
      type: DT_INT32
    }
  }
  attr {
    key: "SrcT"
    value {
      type: DT_INT64
    }
  }
  attr {
    key: "Truncate"
    value {
      b: false
    }
  }
  attr {
    key: "_output_shapes"
    value {
      list {
        shape {
          dim {
            size: 3
          }
        }
      }
    }
  }
}
node {
  name: "rnn_model/sequence_input_layer/sequence_features/cmmc_max/sequence_length/strided_slice_2/stack"
  op: "Const"
  attr {
    key: "_output_shapes"
    value {
      list {
        shape {
          dim {
            size: 1
          }
        }
      }
    }
  }
  attr {
    key: "dtype"
    value {
      type: DT_INT32
    }
  }
  attr {
    key: "value"
    value {
      tensor {
        dtype: DT_INT32
        tensor_shape {
          dim {
            size: 1
          }
        }
        int_val: 0
      }
    }
  }
}
node {
  name: "rnn_model/sequence_input_layer/sequence_features/cmmc_max/sequence_length/strided_slice_2/stack_1"
  op: "Const"
  attr {
    key: "_output_shapes"
    value {
      list {
        shape {
          dim {
            size: 1
          }
        }
      }
    }
  }
  attr {
    key: "dtype"
    value {
      type: DT_INT32
    }
  }
  attr {
    key: "value"
    value {
      tensor {
        dtype: DT_INT32
        tensor_shape {
          dim {
            size: 1
          }
        }
        int_val: 1
      }
    }
  }
}
node {
  name: "rnn_model/sequence_input_layer/sequence_features/cmmc_max/sequence_length/strided_slice_2/stack_2"
  op: "Const"
  attr {
    key: "_output_shapes"
    value {
      list {
        shape {
          dim {
            size: 1
          }
        }
      }
    }
  }
  attr {
    key: "dtype"
    value {
      type: DT_INT32
    }
  }
  attr {
    key: "value"
    value {
      tensor {
        dtype: DT_INT32
        tensor_shape {
          dim {
            size: 1
          }
        }
        int_val: 1
      }
    }
  }
}
node {
  name: "rnn_model/sequence_input_layer/sequence_features/cmmc_max/sequence_length/strided_slice_2"
  op: "StridedSlice"
  input: "rnn_model/sequence_input_layer/sequence_features/cmmc_max/sequence_length/Shape/Cast"
  input: "rnn_model/sequence_input_layer/sequence_features/cmmc_max/sequence_length/strided_slice_2/stack"
  input: "rnn_model/sequence_input_layer/sequence_features/cmmc_max/sequence_length/strided_slice_2/stack_1"
  input: "rnn_model/sequence_input_layer/sequence_features/cmmc_max/sequence_length/strided_slice_2/stack_2"
  attr {
    key: "Index"
    value {
      type: DT_INT32
    }
  }
  attr {
    key: "T"
    value {
      type: DT_INT32
    }
  }
  attr {
    key: "_output_shapes"
    value {
      list {
        shape {
          dim {
            size: 1
          }
        }
      }
    }
  }
  attr {
    key: "begin_mask"
    value {
      i: 1
    }
  }
  attr {
    key: "ellipsis_mask"
    value {
      i: 0
    }
  }
  attr {
    key: "end_mask"
    value {
      i: 0
    }
  }
  attr {
    key: "new_axis_mask"
    value {
      i: 0
    }
  }
  attr {
    key: "shrink_axis_mask"
    value {
      i: 0
    }
  }
}
node {
  name: "rnn_model/sequence_input_layer/sequence_features/cmmc_max/sequence_length/Shape_1"
  op: "Shape"
  input: "rnn_model/sequence_input_layer/sequence_features/cmmc_max/sequence_length/Cast"
  attr {
    key: "T"
    value {
      type: DT_INT64
    }
  }
  attr {
    key: "_output_shapes"
    value {
      list {
        shape {
          dim {
            size: 1
          }
        }
      }
    }
  }
  attr {
    key: "out_type"
    value {
      type: DT_INT32
    }
  }
}
node {
  name: "rnn_model/sequence_input_layer/sequence_features/cmmc_max/sequence_length/strided_slice_3/stack"
  op: "Const"
  attr {
    key: "_output_shapes"
    value {
      list {
        shape {
          dim {
            size: 1
          }
        }
      }
    }
  }
  attr {
    key: "dtype"
    value {
      type: DT_INT32
    }
  }
  attr {
    key: "value"
    value {
      tensor {
        dtype: DT_INT32
        tensor_shape {
          dim {
            size: 1
          }
        }
        int_val: 0
      }
    }
  }
}
node {
  name: "rnn_model/sequence_input_layer/sequence_features/cmmc_max/sequence_length/strided_slice_3/stack_1"
  op: "Const"
  attr {
    key: "_output_shapes"
    value {
      list {
        shape {
          dim {
            size: 1
          }
        }
      }
    }
  }
  attr {
    key: "dtype"
    value {
      type: DT_INT32
    }
  }
  attr {
    key: "value"
    value {
      tensor {
        dtype: DT_INT32
        tensor_shape {
          dim {
            size: 1
          }
        }
        int_val: 1
      }
    }
  }
}
node {
  name: "rnn_model/sequence_input_layer/sequence_features/cmmc_max/sequence_length/strided_slice_3/stack_2"
  op: "Const"
  attr {
    key: "_output_shapes"
    value {
      list {
        shape {
          dim {
            size: 1
          }
        }
      }
    }
  }
  attr {
    key: "dtype"
    value {
      type: DT_INT32
    }
  }
  attr {
    key: "value"
    value {
      tensor {
        dtype: DT_INT32
        tensor_shape {
          dim {
            size: 1
          }
        }
        int_val: 1
      }
    }
  }
}
node {
  name: "rnn_model/sequence_input_layer/sequence_features/cmmc_max/sequence_length/strided_slice_3"
  op: "StridedSlice"
  input: "rnn_model/sequence_input_layer/sequence_features/cmmc_max/sequence_length/Shape_1"
  input: "rnn_model/sequence_input_layer/sequence_features/cmmc_max/sequence_length/strided_slice_3/stack"
  input: "rnn_model/sequence_input_layer/sequence_features/cmmc_max/sequence_length/strided_slice_3/stack_1"
  input: "rnn_model/sequence_input_layer/sequence_features/cmmc_max/sequence_length/strided_slice_3/stack_2"
  attr {
    key: "Index"
    value {
      type: DT_INT32
    }
  }
  attr {
    key: "T"
    value {
      type: DT_INT32
    }
  }
  attr {
    key: "_output_shapes"
    value {
      list {
        shape {
          dim {
            size: 1
          }
        }
      }
    }
  }
  attr {
    key: "begin_mask"
    value {
      i: 1
    }
  }
  attr {
    key: "ellipsis_mask"
    value {
      i: 0
    }
  }
  attr {
    key: "end_mask"
    value {
      i: 0
    }
  }
  attr {
    key: "new_axis_mask"
    value {
      i: 0
    }
  }
  attr {
    key: "shrink_axis_mask"
    value {
      i: 0
    }
  }
}
node {
  name: "rnn_model/sequence_input_layer/sequence_features/cmmc_max/sequence_length/sub"
  op: "Sub"
  input: "rnn_model/sequence_input_layer/sequence_features/cmmc_max/sequence_length/strided_slice_2"
  input: "rnn_model/sequence_input_layer/sequence_features/cmmc_max/sequence_length/strided_slice_3"
  attr {
    key: "T"
    value {
      type: DT_INT32
    }
  }
  attr {
    key: "_output_shapes"
    value {
      list {
        shape {
          dim {
            size: 1
          }
        }
      }
    }
  }
}
node {
  name: "rnn_model/sequence_input_layer/sequence_features/cmmc_max/sequence_length/zeros/Const"
  op: "Const"
  attr {
    key: "_output_shapes"
    value {
      list {
        shape {
        }
      }
    }
  }
  attr {
    key: "dtype"
    value {
      type: DT_INT64
    }
  }
  attr {
    key: "value"
    value {
      tensor {
        dtype: DT_INT64
        tensor_shape {
        }
        int64_val: 0
      }
    }
  }
}
node {
  name: "rnn_model/sequence_input_layer/sequence_features/cmmc_max/sequence_length/zeros"
  op: "Fill"
  input: "rnn_model/sequence_input_layer/sequence_features/cmmc_max/sequence_length/sub"
  input: "rnn_model/sequence_input_layer/sequence_features/cmmc_max/sequence_length/zeros/Const"
  attr {
    key: "T"
    value {
      type: DT_INT64
    }
  }
  attr {
    key: "_output_shapes"
    value {
      list {
        shape {
          dim {
            size: -1
          }
        }
      }
    }
  }
  attr {
    key: "index_type"
    value {
      type: DT_INT32
    }
  }
}
node {
  name: "rnn_model/sequence_input_layer/sequence_features/cmmc_max/sequence_length/axis"
  op: "Const"
  attr {
    key: "_output_shapes"
    value {
      list {
        shape {
        }
      }
    }
  }
  attr {
    key: "dtype"
    value {
      type: DT_INT32
    }
  }
  attr {
    key: "value"
    value {
      tensor {
        dtype: DT_INT32
        tensor_shape {
        }
        int_val: 0
      }
    }
  }
}
node {
  name: "rnn_model/sequence_input_layer/sequence_features/cmmc_max/sequence_length"
  op: "ConcatV2"
  input: "rnn_model/sequence_input_layer/sequence_features/cmmc_max/sequence_length/Cast"
  input: "rnn_model/sequence_input_layer/sequence_features/cmmc_max/sequence_length/zeros"
  input: "rnn_model/sequence_input_layer/sequence_features/cmmc_max/sequence_length/axis"
  attr {
    key: "N"
    value {
      i: 2
    }
  }
  attr {
    key: "T"
    value {
      type: DT_INT64
    }
  }
  attr {
    key: "Tidx"
    value {
      type: DT_INT32
    }
  }
  attr {
    key: "_output_shapes"
    value {
      list {
        shape {
          dim {
            size: -1
          }
        }
      }
    }
  }
}
node {
  name: "rnn_model/sequence_input_layer/sequence_features/cmmc_max/Shape_1"
  op: "Shape"
  input: "rnn_model/sequence_input_layer/sequence_features/cmmc_max/Reshape"
  attr {
    key: "T"
    value {
      type: DT_FLOAT
    }
  }
  attr {
    key: "_output_shapes"
    value {
      list {
        shape {
          dim {
            size: 3
          }
        }
      }
    }
  }
  attr {
    key: "out_type"
    value {
      type: DT_INT32
    }
  }
}
node {
  name: "rnn_model/sequence_input_layer/sequence_features/cmmc_max/strided_slice_1/stack"
  op: "Const"
  attr {
    key: "_output_shapes"
    value {
      list {
        shape {
          dim {
            size: 1
          }
        }
      }
    }
  }
  attr {
    key: "dtype"
    value {
      type: DT_INT32
    }
  }
  attr {
    key: "value"
    value {
      tensor {
        dtype: DT_INT32
        tensor_shape {
          dim {
            size: 1
          }
        }
        int_val: 0
      }
    }
  }
}
node {
  name: "rnn_model/sequence_input_layer/sequence_features/cmmc_max/strided_slice_1/stack_1"
  op: "Const"
  attr {
    key: "_output_shapes"
    value {
      list {
        shape {
          dim {
            size: 1
          }
        }
      }
    }
  }
  attr {
    key: "dtype"
    value {
      type: DT_INT32
    }
  }
  attr {
    key: "value"
    value {
      tensor {
        dtype: DT_INT32
        tensor_shape {
          dim {
            size: 1
          }
        }
        int_val: 1
      }
    }
  }
}
node {
  name: "rnn_model/sequence_input_layer/sequence_features/cmmc_max/strided_slice_1/stack_2"
  op: "Const"
  attr {
    key: "_output_shapes"
    value {
      list {
        shape {
          dim {
            size: 1
          }
        }
      }
    }
  }
  attr {
    key: "dtype"
    value {
      type: DT_INT32
    }
  }
  attr {
    key: "value"
    value {
      tensor {
        dtype: DT_INT32
        tensor_shape {
          dim {
            size: 1
          }
        }
        int_val: 1
      }
    }
  }
}
node {
  name: "rnn_model/sequence_input_layer/sequence_features/cmmc_max/strided_slice_1"
  op: "StridedSlice"
  input: "rnn_model/sequence_input_layer/sequence_features/cmmc_max/Shape_1"
  input: "rnn_model/sequence_input_layer/sequence_features/cmmc_max/strided_slice_1/stack"
  input: "rnn_model/sequence_input_layer/sequence_features/cmmc_max/strided_slice_1/stack_1"
  input: "rnn_model/sequence_input_layer/sequence_features/cmmc_max/strided_slice_1/stack_2"
  attr {
    key: "Index"
    value {
      type: DT_INT32
    }
  }
  attr {
    key: "T"
    value {
      type: DT_INT32
    }
  }
  attr {
    key: "_output_shapes"
    value {
      list {
        shape {
        }
      }
    }
  }
  attr {
    key: "begin_mask"
    value {
      i: 0
    }
  }
  attr {
    key: "ellipsis_mask"
    value {
      i: 0
    }
  }
  attr {
    key: "end_mask"
    value {
      i: 0
    }
  }
  attr {
    key: "new_axis_mask"
    value {
      i: 0
    }
  }
  attr {
    key: "shrink_axis_mask"
    value {
      i: 1
    }
  }
}
node {
  name: "rnn_model/sequence_input_layer/sequence_features/cmmc_max/strided_slice_2/stack"
  op: "Const"
  attr {
    key: "_output_shapes"
    value {
      list {
        shape {
          dim {
            size: 1
          }
        }
      }
    }
  }
  attr {
    key: "dtype"
    value {
      type: DT_INT32
    }
  }
  attr {
    key: "value"
    value {
      tensor {
        dtype: DT_INT32
        tensor_shape {
          dim {
            size: 1
          }
        }
        int_val: 1
      }
    }
  }
}
node {
  name: "rnn_model/sequence_input_layer/sequence_features/cmmc_max/strided_slice_2/stack_1"
  op: "Const"
  attr {
    key: "_output_shapes"
    value {
      list {
        shape {
          dim {
            size: 1
          }
        }
      }
    }
  }
  attr {
    key: "dtype"
    value {
      type: DT_INT32
    }
  }
  attr {
    key: "value"
    value {
      tensor {
        dtype: DT_INT32
        tensor_shape {
          dim {
            size: 1
          }
        }
        int_val: 2
      }
    }
  }
}
node {
  name: "rnn_model/sequence_input_layer/sequence_features/cmmc_max/strided_slice_2/stack_2"
  op: "Const"
  attr {
    key: "_output_shapes"
    value {
      list {
        shape {
          dim {
            size: 1
          }
        }
      }
    }
  }
  attr {
    key: "dtype"
    value {
      type: DT_INT32
    }
  }
  attr {
    key: "value"
    value {
      tensor {
        dtype: DT_INT32
        tensor_shape {
          dim {
            size: 1
          }
        }
        int_val: 1
      }
    }
  }
}
node {
  name: "rnn_model/sequence_input_layer/sequence_features/cmmc_max/strided_slice_2"
  op: "StridedSlice"
  input: "rnn_model/sequence_input_layer/sequence_features/cmmc_max/Shape_1"
  input: "rnn_model/sequence_input_layer/sequence_features/cmmc_max/strided_slice_2/stack"
  input: "rnn_model/sequence_input_layer/sequence_features/cmmc_max/strided_slice_2/stack_1"
  input: "rnn_model/sequence_input_layer/sequence_features/cmmc_max/strided_slice_2/stack_2"
  attr {
    key: "Index"
    value {
      type: DT_INT32
    }
  }
  attr {
    key: "T"
    value {
      type: DT_INT32
    }
  }
  attr {
    key: "_output_shapes"
    value {
      list {
        shape {
        }
      }
    }
  }
  attr {
    key: "begin_mask"
    value {
      i: 0
    }
  }
  attr {
    key: "ellipsis_mask"
    value {
      i: 0
    }
  }
  attr {
    key: "end_mask"
    value {
      i: 0
    }
  }
  attr {
    key: "new_axis_mask"
    value {
      i: 0
    }
  }
  attr {
    key: "shrink_axis_mask"
    value {
      i: 1
    }
  }
}
node {
  name: "rnn_model/sequence_input_layer/sequence_features/cmmc_max/Reshape_1/shape/2"
  op: "Const"
  attr {
    key: "_output_shapes"
    value {
      list {
        shape {
        }
      }
    }
  }
  attr {
    key: "dtype"
    value {
      type: DT_INT32
    }
  }
  attr {
    key: "value"
    value {
      tensor {
        dtype: DT_INT32
        tensor_shape {
        }
        int_val: 1
      }
    }
  }
}
node {
  name: "rnn_model/sequence_input_layer/sequence_features/cmmc_max/Reshape_1/shape"
  op: "Pack"
  input: "rnn_model/sequence_input_layer/sequence_features/cmmc_max/strided_slice_1"
  input: "rnn_model/sequence_input_layer/sequence_features/cmmc_max/strided_slice_2"
  input: "rnn_model/sequence_input_layer/sequence_features/cmmc_max/Reshape_1/shape/2"
  attr {
    key: "N"
    value {
      i: 3
    }
  }
  attr {
    key: "T"
    value {
      type: DT_INT32
    }
  }
  attr {
    key: "_output_shapes"
    value {
      list {
        shape {
          dim {
            size: 3
          }
        }
      }
    }
  }
  attr {
    key: "axis"
    value {
      i: 0
    }
  }
}
node {
  name: "rnn_model/sequence_input_layer/sequence_features/cmmc_max/Reshape_1"
  op: "Reshape"
  input: "rnn_model/sequence_input_layer/sequence_features/cmmc_max/Reshape"
  input: "rnn_model/sequence_input_layer/sequence_features/cmmc_max/Reshape_1/shape"
  attr {
    key: "T"
    value {
      type: DT_FLOAT
    }
  }
  attr {
    key: "Tshape"
    value {
      type: DT_INT32
    }
  }
  attr {
    key: "_output_shapes"
    value {
      list {
        shape {
          dim {
            size: -1
          }
          dim {
            size: -1
          }
          dim {
            size: 1
          }
        }
      }
    }
  }
}
node {
  name: "rnn_model/sequence_input_layer/sequence_features/ohlc_close/SparseToDense/default_value"
  op: "Const"
  attr {
    key: "_output_shapes"
    value {
      list {
        shape {
        }
      }
    }
  }
  attr {
    key: "dtype"
    value {
      type: DT_FLOAT
    }
  }
  attr {
    key: "value"
    value {
      tensor {
        dtype: DT_FLOAT
        tensor_shape {
        }
        float_val: 0.0
      }
    }
  }
}
node {
  name: "rnn_model/sequence_input_layer/sequence_features/ohlc_close/SparseToDense"
  op: "SparseToDense"
  input: "DeserializeSparse_2"
  input: "stack_2"
  input: "DeserializeSparse_2:1"
  input: "rnn_model/sequence_input_layer/sequence_features/ohlc_close/SparseToDense/default_value"
  attr {
    key: "T"
    value {
      type: DT_FLOAT
    }
  }
  attr {
    key: "Tindices"
    value {
      type: DT_INT64
    }
  }
  attr {
    key: "_output_shapes"
    value {
      list {
        shape {
          dim {
            size: 64
          }
          dim {
            size: -1
          }
          dim {
            size: -1
          }
        }
      }
    }
  }
  attr {
    key: "validate_indices"
    value {
      b: true
    }
  }
}
node {
  name: "rnn_model/sequence_input_layer/sequence_features/ohlc_close/Shape"
  op: "Shape"
  input: "rnn_model/sequence_input_layer/sequence_features/ohlc_close/SparseToDense"
  attr {
    key: "T"
    value {
      type: DT_FLOAT
    }
  }
  attr {
    key: "_output_shapes"
    value {
      list {
        shape {
          dim {
            size: 3
          }
        }
      }
    }
  }
  attr {
    key: "out_type"
    value {
      type: DT_INT32
    }
  }
}
node {
  name: "rnn_model/sequence_input_layer/sequence_features/ohlc_close/strided_slice/stack"
  op: "Const"
  attr {
    key: "_output_shapes"
    value {
      list {
        shape {
          dim {
            size: 1
          }
        }
      }
    }
  }
  attr {
    key: "dtype"
    value {
      type: DT_INT32
    }
  }
  attr {
    key: "value"
    value {
      tensor {
        dtype: DT_INT32
        tensor_shape {
          dim {
            size: 1
          }
        }
        int_val: 0
      }
    }
  }
}
node {
  name: "rnn_model/sequence_input_layer/sequence_features/ohlc_close/strided_slice/stack_1"
  op: "Const"
  attr {
    key: "_output_shapes"
    value {
      list {
        shape {
          dim {
            size: 1
          }
        }
      }
    }
  }
  attr {
    key: "dtype"
    value {
      type: DT_INT32
    }
  }
  attr {
    key: "value"
    value {
      tensor {
        dtype: DT_INT32
        tensor_shape {
          dim {
            size: 1
          }
        }
        int_val: 1
      }
    }
  }
}
node {
  name: "rnn_model/sequence_input_layer/sequence_features/ohlc_close/strided_slice/stack_2"
  op: "Const"
  attr {
    key: "_output_shapes"
    value {
      list {
        shape {
          dim {
            size: 1
          }
        }
      }
    }
  }
  attr {
    key: "dtype"
    value {
      type: DT_INT32
    }
  }
  attr {
    key: "value"
    value {
      tensor {
        dtype: DT_INT32
        tensor_shape {
          dim {
            size: 1
          }
        }
        int_val: 1
      }
    }
  }
}
node {
  name: "rnn_model/sequence_input_layer/sequence_features/ohlc_close/strided_slice"
  op: "StridedSlice"
  input: "rnn_model/sequence_input_layer/sequence_features/ohlc_close/Shape"
  input: "rnn_model/sequence_input_layer/sequence_features/ohlc_close/strided_slice/stack"
  input: "rnn_model/sequence_input_layer/sequence_features/ohlc_close/strided_slice/stack_1"
  input: "rnn_model/sequence_input_layer/sequence_features/ohlc_close/strided_slice/stack_2"
  attr {
    key: "Index"
    value {
      type: DT_INT32
    }
  }
  attr {
    key: "T"
    value {
      type: DT_INT32
    }
  }
  attr {
    key: "_output_shapes"
    value {
      list {
        shape {
          dim {
            size: 1
          }
        }
      }
    }
  }
  attr {
    key: "begin_mask"
    value {
      i: 1
    }
  }
  attr {
    key: "ellipsis_mask"
    value {
      i: 0
    }
  }
  attr {
    key: "end_mask"
    value {
      i: 0
    }
  }
  attr {
    key: "new_axis_mask"
    value {
      i: 0
    }
  }
  attr {
    key: "shrink_axis_mask"
    value {
      i: 0
    }
  }
}
node {
  name: "rnn_model/sequence_input_layer/sequence_features/ohlc_close/concat/values_1"
  op: "Const"
  attr {
    key: "_output_shapes"
    value {
      list {
        shape {
          dim {
            size: 1
          }
        }
      }
    }
  }
  attr {
    key: "dtype"
    value {
      type: DT_INT32
    }
  }
  attr {
    key: "value"
    value {
      tensor {
        dtype: DT_INT32
        tensor_shape {
          dim {
            size: 1
          }
        }
        int_val: -1
      }
    }
  }
}
node {
  name: "rnn_model/sequence_input_layer/sequence_features/ohlc_close/concat/values_2"
  op: "Const"
  attr {
    key: "_output_shapes"
    value {
      list {
        shape {
          dim {
            size: 1
          }
        }
      }
    }
  }
  attr {
    key: "dtype"
    value {
      type: DT_INT32
    }
  }
  attr {
    key: "value"
    value {
      tensor {
        dtype: DT_INT32
        tensor_shape {
          dim {
            size: 1
          }
        }
        int_val: 1
      }
    }
  }
}
node {
  name: "rnn_model/sequence_input_layer/sequence_features/ohlc_close/concat/axis"
  op: "Const"
  attr {
    key: "_output_shapes"
    value {
      list {
        shape {
        }
      }
    }
  }
  attr {
    key: "dtype"
    value {
      type: DT_INT32
    }
  }
  attr {
    key: "value"
    value {
      tensor {
        dtype: DT_INT32
        tensor_shape {
        }
        int_val: 0
      }
    }
  }
}
node {
  name: "rnn_model/sequence_input_layer/sequence_features/ohlc_close/concat"
  op: "ConcatV2"
  input: "rnn_model/sequence_input_layer/sequence_features/ohlc_close/strided_slice"
  input: "rnn_model/sequence_input_layer/sequence_features/ohlc_close/concat/values_1"
  input: "rnn_model/sequence_input_layer/sequence_features/ohlc_close/concat/values_2"
  input: "rnn_model/sequence_input_layer/sequence_features/ohlc_close/concat/axis"
  attr {
    key: "N"
    value {
      i: 3
    }
  }
  attr {
    key: "T"
    value {
      type: DT_INT32
    }
  }
  attr {
    key: "Tidx"
    value {
      type: DT_INT32
    }
  }
  attr {
    key: "_output_shapes"
    value {
      list {
        shape {
          dim {
            size: 3
          }
        }
      }
    }
  }
}
node {
  name: "rnn_model/sequence_input_layer/sequence_features/ohlc_close/Reshape"
  op: "Reshape"
  input: "rnn_model/sequence_input_layer/sequence_features/ohlc_close/SparseToDense"
  input: "rnn_model/sequence_input_layer/sequence_features/ohlc_close/concat"
  attr {
    key: "T"
    value {
      type: DT_FLOAT
    }
  }
  attr {
    key: "Tshape"
    value {
      type: DT_INT32
    }
  }
  attr {
    key: "_output_shapes"
    value {
      list {
        shape {
          dim {
            size: 64
          }
          dim {
            size: -1
          }
          dim {
            size: 1
          }
        }
      }
    }
  }
}
node {
  name: "rnn_model/sequence_input_layer/sequence_features/ohlc_close/sequence_length/strided_slice/stack"
  op: "Const"
  attr {
    key: "_output_shapes"
    value {
      list {
        shape {
          dim {
            size: 2
          }
        }
      }
    }
  }
  attr {
    key: "dtype"
    value {
      type: DT_INT32
    }
  }
  attr {
    key: "value"
    value {
      tensor {
        dtype: DT_INT32
        tensor_shape {
          dim {
            size: 2
          }
        }
        tensor_content: "\000\000\000\000\000\000\000\000"
      }
    }
  }
}
node {
  name: "rnn_model/sequence_input_layer/sequence_features/ohlc_close/sequence_length/strided_slice/stack_1"
  op: "Const"
  attr {
    key: "_output_shapes"
    value {
      list {
        shape {
          dim {
            size: 2
          }
        }
      }
    }
  }
  attr {
    key: "dtype"
    value {
      type: DT_INT32
    }
  }
  attr {
    key: "value"
    value {
      tensor {
        dtype: DT_INT32
        tensor_shape {
          dim {
            size: 2
          }
        }
        tensor_content: "\000\000\000\000\001\000\000\000"
      }
    }
  }
}
node {
  name: "rnn_model/sequence_input_layer/sequence_features/ohlc_close/sequence_length/strided_slice/stack_2"
  op: "Const"
  attr {
    key: "_output_shapes"
    value {
      list {
        shape {
          dim {
            size: 2
          }
        }
      }
    }
  }
  attr {
    key: "dtype"
    value {
      type: DT_INT32
    }
  }
  attr {
    key: "value"
    value {
      tensor {
        dtype: DT_INT32
        tensor_shape {
          dim {
            size: 2
          }
        }
        tensor_content: "\001\000\000\000\001\000\000\000"
      }
    }
  }
}
node {
  name: "rnn_model/sequence_input_layer/sequence_features/ohlc_close/sequence_length/strided_slice"
  op: "StridedSlice"
  input: "DeserializeSparse_2"
  input: "rnn_model/sequence_input_layer/sequence_features/ohlc_close/sequence_length/strided_slice/stack"
  input: "rnn_model/sequence_input_layer/sequence_features/ohlc_close/sequence_length/strided_slice/stack_1"
  input: "rnn_model/sequence_input_layer/sequence_features/ohlc_close/sequence_length/strided_slice/stack_2"
  attr {
    key: "Index"
    value {
      type: DT_INT32
    }
  }
  attr {
    key: "T"
    value {
      type: DT_INT64
    }
  }
  attr {
    key: "_output_shapes"
    value {
      list {
        shape {
          dim {
            size: -1
          }
        }
      }
    }
  }
  attr {
    key: "begin_mask"
    value {
      i: 1
    }
  }
  attr {
    key: "ellipsis_mask"
    value {
      i: 0
    }
  }
  attr {
    key: "end_mask"
    value {
      i: 1
    }
  }
  attr {
    key: "new_axis_mask"
    value {
      i: 0
    }
  }
  attr {
    key: "shrink_axis_mask"
    value {
      i: 2
    }
  }
}
node {
  name: "rnn_model/sequence_input_layer/sequence_features/ohlc_close/sequence_length/strided_slice_1/stack"
  op: "Const"
  attr {
    key: "_output_shapes"
    value {
      list {
        shape {
          dim {
            size: 2
          }
        }
      }
    }
  }
  attr {
    key: "dtype"
    value {
      type: DT_INT32
    }
  }
  attr {
    key: "value"
    value {
      tensor {
        dtype: DT_INT32
        tensor_shape {
          dim {
            size: 2
          }
        }
        tensor_content: "\000\000\000\000\001\000\000\000"
      }
    }
  }
}
node {
  name: "rnn_model/sequence_input_layer/sequence_features/ohlc_close/sequence_length/strided_slice_1/stack_1"
  op: "Const"
  attr {
    key: "_output_shapes"
    value {
      list {
        shape {
          dim {
            size: 2
          }
        }
      }
    }
  }
  attr {
    key: "dtype"
    value {
      type: DT_INT32
    }
  }
  attr {
    key: "value"
    value {
      tensor {
        dtype: DT_INT32
        tensor_shape {
          dim {
            size: 2
          }
        }
        tensor_content: "\000\000\000\000\002\000\000\000"
      }
    }
  }
}
node {
  name: "rnn_model/sequence_input_layer/sequence_features/ohlc_close/sequence_length/strided_slice_1/stack_2"
  op: "Const"
  attr {
    key: "_output_shapes"
    value {
      list {
        shape {
          dim {
            size: 2
          }
        }
      }
    }
  }
  attr {
    key: "dtype"
    value {
      type: DT_INT32
    }
  }
  attr {
    key: "value"
    value {
      tensor {
        dtype: DT_INT32
        tensor_shape {
          dim {
            size: 2
          }
        }
        tensor_content: "\001\000\000\000\001\000\000\000"
      }
    }
  }
}
node {
  name: "rnn_model/sequence_input_layer/sequence_features/ohlc_close/sequence_length/strided_slice_1"
  op: "StridedSlice"
  input: "DeserializeSparse_2"
  input: "rnn_model/sequence_input_layer/sequence_features/ohlc_close/sequence_length/strided_slice_1/stack"
  input: "rnn_model/sequence_input_layer/sequence_features/ohlc_close/sequence_length/strided_slice_1/stack_1"
  input: "rnn_model/sequence_input_layer/sequence_features/ohlc_close/sequence_length/strided_slice_1/stack_2"
  attr {
    key: "Index"
    value {
      type: DT_INT32
    }
  }
  attr {
    key: "T"
    value {
      type: DT_INT64
    }
  }
  attr {
    key: "_output_shapes"
    value {
      list {
        shape {
          dim {
            size: -1
          }
        }
      }
    }
  }
  attr {
    key: "begin_mask"
    value {
      i: 1
    }
  }
  attr {
    key: "ellipsis_mask"
    value {
      i: 0
    }
  }
  attr {
    key: "end_mask"
    value {
      i: 1
    }
  }
  attr {
    key: "new_axis_mask"
    value {
      i: 0
    }
  }
  attr {
    key: "shrink_axis_mask"
    value {
      i: 2
    }
  }
}
node {
  name: "rnn_model/sequence_input_layer/sequence_features/ohlc_close/sequence_length/ones_like/Shape"
  op: "Shape"
  input: "rnn_model/sequence_input_layer/sequence_features/ohlc_close/sequence_length/strided_slice_1"
  attr {
    key: "T"
    value {
      type: DT_INT64
    }
  }
  attr {
    key: "_output_shapes"
    value {
      list {
        shape {
          dim {
            size: 1
          }
        }
      }
    }
  }
  attr {
    key: "out_type"
    value {
      type: DT_INT32
    }
  }
}
node {
  name: "rnn_model/sequence_input_layer/sequence_features/ohlc_close/sequence_length/ones_like/Const"
  op: "Const"
  attr {
    key: "_output_shapes"
    value {
      list {
        shape {
        }
      }
    }
  }
  attr {
    key: "dtype"
    value {
      type: DT_INT64
    }
  }
  attr {
    key: "value"
    value {
      tensor {
        dtype: DT_INT64
        tensor_shape {
        }
        int64_val: 1
      }
    }
  }
}
node {
  name: "rnn_model/sequence_input_layer/sequence_features/ohlc_close/sequence_length/ones_like"
  op: "Fill"
  input: "rnn_model/sequence_input_layer/sequence_features/ohlc_close/sequence_length/ones_like/Shape"
  input: "rnn_model/sequence_input_layer/sequence_features/ohlc_close/sequence_length/ones_like/Const"
  attr {
    key: "T"
    value {
      type: DT_INT64
    }
  }
  attr {
    key: "_output_shapes"
    value {
      list {
        shape {
          dim {
            size: -1
          }
        }
      }
    }
  }
  attr {
    key: "index_type"
    value {
      type: DT_INT32
    }
  }
}
node {
  name: "rnn_model/sequence_input_layer/sequence_features/ohlc_close/sequence_length/add"
  op: "AddV2"
  input: "rnn_model/sequence_input_layer/sequence_features/ohlc_close/sequence_length/strided_slice_1"
  input: "rnn_model/sequence_input_layer/sequence_features/ohlc_close/sequence_length/ones_like"
  attr {
    key: "T"
    value {
      type: DT_INT64
    }
  }
  attr {
    key: "_output_shapes"
    value {
      list {
        shape {
          dim {
            size: -1
          }
        }
      }
    }
  }
}
node {
  name: "rnn_model/sequence_input_layer/sequence_features/ohlc_close/sequence_length/SegmentMax"
  op: "SegmentMax"
  input: "rnn_model/sequence_input_layer/sequence_features/ohlc_close/sequence_length/add"
  input: "rnn_model/sequence_input_layer/sequence_features/ohlc_close/sequence_length/strided_slice"
  attr {
    key: "T"
    value {
      type: DT_INT64
    }
  }
  attr {
    key: "Tindices"
    value {
      type: DT_INT64
    }
  }
  attr {
    key: "_output_shapes"
    value {
      list {
        shape {
          dim {
            size: -1
          }
        }
      }
    }
  }
}
node {
  name: "rnn_model/sequence_input_layer/sequence_features/ohlc_close/sequence_length/truediv/y"
  op: "Const"
  attr {
    key: "_output_shapes"
    value {
      list {
        shape {
        }
      }
    }
  }
  attr {
    key: "dtype"
    value {
      type: DT_INT64
    }
  }
  attr {
    key: "value"
    value {
      tensor {
        dtype: DT_INT64
        tensor_shape {
        }
        int64_val: 1
      }
    }
  }
}
node {
  name: "rnn_model/sequence_input_layer/sequence_features/ohlc_close/sequence_length/truediv/Cast"
  op: "Cast"
  input: "rnn_model/sequence_input_layer/sequence_features/ohlc_close/sequence_length/SegmentMax"
  attr {
    key: "DstT"
    value {
      type: DT_DOUBLE
    }
  }
  attr {
    key: "SrcT"
    value {
      type: DT_INT64
    }
  }
  attr {
    key: "Truncate"
    value {
      b: false
    }
  }
  attr {
    key: "_output_shapes"
    value {
      list {
        shape {
          dim {
            size: -1
          }
        }
      }
    }
  }
}
node {
  name: "rnn_model/sequence_input_layer/sequence_features/ohlc_close/sequence_length/truediv/Cast_1"
  op: "Cast"
  input: "rnn_model/sequence_input_layer/sequence_features/ohlc_close/sequence_length/truediv/y"
  attr {
    key: "DstT"
    value {
      type: DT_DOUBLE
    }
  }
  attr {
    key: "SrcT"
    value {
      type: DT_INT64
    }
  }
  attr {
    key: "Truncate"
    value {
      b: false
    }
  }
  attr {
    key: "_output_shapes"
    value {
      list {
        shape {
        }
      }
    }
  }
}
node {
  name: "rnn_model/sequence_input_layer/sequence_features/ohlc_close/sequence_length/truediv"
  op: "RealDiv"
  input: "rnn_model/sequence_input_layer/sequence_features/ohlc_close/sequence_length/truediv/Cast"
  input: "rnn_model/sequence_input_layer/sequence_features/ohlc_close/sequence_length/truediv/Cast_1"
  attr {
    key: "T"
    value {
      type: DT_DOUBLE
    }
  }
  attr {
    key: "_output_shapes"
    value {
      list {
        shape {
          dim {
            size: -1
          }
        }
      }
    }
  }
}
node {
  name: "rnn_model/sequence_input_layer/sequence_features/ohlc_close/sequence_length/Ceil"
  op: "Ceil"
  input: "rnn_model/sequence_input_layer/sequence_features/ohlc_close/sequence_length/truediv"
  attr {
    key: "T"
    value {
      type: DT_DOUBLE
    }
  }
  attr {
    key: "_output_shapes"
    value {
      list {
        shape {
          dim {
            size: -1
          }
        }
      }
    }
  }
}
node {
  name: "rnn_model/sequence_input_layer/sequence_features/ohlc_close/sequence_length/Cast"
  op: "Cast"
  input: "rnn_model/sequence_input_layer/sequence_features/ohlc_close/sequence_length/Ceil"
  attr {
    key: "DstT"
    value {
      type: DT_INT64
    }
  }
  attr {
    key: "SrcT"
    value {
      type: DT_DOUBLE
    }
  }
  attr {
    key: "Truncate"
    value {
      b: false
    }
  }
  attr {
    key: "_output_shapes"
    value {
      list {
        shape {
          dim {
            size: -1
          }
        }
      }
    }
  }
}
node {
  name: "rnn_model/sequence_input_layer/sequence_features/ohlc_close/sequence_length/Shape/Cast"
  op: "Cast"
  input: "stack_2"
  attr {
    key: "DstT"
    value {
      type: DT_INT32
    }
  }
  attr {
    key: "SrcT"
    value {
      type: DT_INT64
    }
  }
  attr {
    key: "Truncate"
    value {
      b: false
    }
  }
  attr {
    key: "_output_shapes"
    value {
      list {
        shape {
          dim {
            size: 3
          }
        }
      }
    }
  }
}
node {
  name: "rnn_model/sequence_input_layer/sequence_features/ohlc_close/sequence_length/strided_slice_2/stack"
  op: "Const"
  attr {
    key: "_output_shapes"
    value {
      list {
        shape {
          dim {
            size: 1
          }
        }
      }
    }
  }
  attr {
    key: "dtype"
    value {
      type: DT_INT32
    }
  }
  attr {
    key: "value"
    value {
      tensor {
        dtype: DT_INT32
        tensor_shape {
          dim {
            size: 1
          }
        }
        int_val: 0
      }
    }
  }
}
node {
  name: "rnn_model/sequence_input_layer/sequence_features/ohlc_close/sequence_length/strided_slice_2/stack_1"
  op: "Const"
  attr {
    key: "_output_shapes"
    value {
      list {
        shape {
          dim {
            size: 1
          }
        }
      }
    }
  }
  attr {
    key: "dtype"
    value {
      type: DT_INT32
    }
  }
  attr {
    key: "value"
    value {
      tensor {
        dtype: DT_INT32
        tensor_shape {
          dim {
            size: 1
          }
        }
        int_val: 1
      }
    }
  }
}
node {
  name: "rnn_model/sequence_input_layer/sequence_features/ohlc_close/sequence_length/strided_slice_2/stack_2"
  op: "Const"
  attr {
    key: "_output_shapes"
    value {
      list {
        shape {
          dim {
            size: 1
          }
        }
      }
    }
  }
  attr {
    key: "dtype"
    value {
      type: DT_INT32
    }
  }
  attr {
    key: "value"
    value {
      tensor {
        dtype: DT_INT32
        tensor_shape {
          dim {
            size: 1
          }
        }
        int_val: 1
      }
    }
  }
}
node {
  name: "rnn_model/sequence_input_layer/sequence_features/ohlc_close/sequence_length/strided_slice_2"
  op: "StridedSlice"
  input: "rnn_model/sequence_input_layer/sequence_features/ohlc_close/sequence_length/Shape/Cast"
  input: "rnn_model/sequence_input_layer/sequence_features/ohlc_close/sequence_length/strided_slice_2/stack"
  input: "rnn_model/sequence_input_layer/sequence_features/ohlc_close/sequence_length/strided_slice_2/stack_1"
  input: "rnn_model/sequence_input_layer/sequence_features/ohlc_close/sequence_length/strided_slice_2/stack_2"
  attr {
    key: "Index"
    value {
      type: DT_INT32
    }
  }
  attr {
    key: "T"
    value {
      type: DT_INT32
    }
  }
  attr {
    key: "_output_shapes"
    value {
      list {
        shape {
          dim {
            size: 1
          }
        }
      }
    }
  }
  attr {
    key: "begin_mask"
    value {
      i: 1
    }
  }
  attr {
    key: "ellipsis_mask"
    value {
      i: 0
    }
  }
  attr {
    key: "end_mask"
    value {
      i: 0
    }
  }
  attr {
    key: "new_axis_mask"
    value {
      i: 0
    }
  }
  attr {
    key: "shrink_axis_mask"
    value {
      i: 0
    }
  }
}
node {
  name: "rnn_model/sequence_input_layer/sequence_features/ohlc_close/sequence_length/Shape_1"
  op: "Shape"
  input: "rnn_model/sequence_input_layer/sequence_features/ohlc_close/sequence_length/Cast"
  attr {
    key: "T"
    value {
      type: DT_INT64
    }
  }
  attr {
    key: "_output_shapes"
    value {
      list {
        shape {
          dim {
            size: 1
          }
        }
      }
    }
  }
  attr {
    key: "out_type"
    value {
      type: DT_INT32
    }
  }
}
node {
  name: "rnn_model/sequence_input_layer/sequence_features/ohlc_close/sequence_length/strided_slice_3/stack"
  op: "Const"
  attr {
    key: "_output_shapes"
    value {
      list {
        shape {
          dim {
            size: 1
          }
        }
      }
    }
  }
  attr {
    key: "dtype"
    value {
      type: DT_INT32
    }
  }
  attr {
    key: "value"
    value {
      tensor {
        dtype: DT_INT32
        tensor_shape {
          dim {
            size: 1
          }
        }
        int_val: 0
      }
    }
  }
}
node {
  name: "rnn_model/sequence_input_layer/sequence_features/ohlc_close/sequence_length/strided_slice_3/stack_1"
  op: "Const"
  attr {
    key: "_output_shapes"
    value {
      list {
        shape {
          dim {
            size: 1
          }
        }
      }
    }
  }
  attr {
    key: "dtype"
    value {
      type: DT_INT32
    }
  }
  attr {
    key: "value"
    value {
      tensor {
        dtype: DT_INT32
        tensor_shape {
          dim {
            size: 1
          }
        }
        int_val: 1
      }
    }
  }
}
node {
  name: "rnn_model/sequence_input_layer/sequence_features/ohlc_close/sequence_length/strided_slice_3/stack_2"
  op: "Const"
  attr {
    key: "_output_shapes"
    value {
      list {
        shape {
          dim {
            size: 1
          }
        }
      }
    }
  }
  attr {
    key: "dtype"
    value {
      type: DT_INT32
    }
  }
  attr {
    key: "value"
    value {
      tensor {
        dtype: DT_INT32
        tensor_shape {
          dim {
            size: 1
          }
        }
        int_val: 1
      }
    }
  }
}
node {
  name: "rnn_model/sequence_input_layer/sequence_features/ohlc_close/sequence_length/strided_slice_3"
  op: "StridedSlice"
  input: "rnn_model/sequence_input_layer/sequence_features/ohlc_close/sequence_length/Shape_1"
  input: "rnn_model/sequence_input_layer/sequence_features/ohlc_close/sequence_length/strided_slice_3/stack"
  input: "rnn_model/sequence_input_layer/sequence_features/ohlc_close/sequence_length/strided_slice_3/stack_1"
  input: "rnn_model/sequence_input_layer/sequence_features/ohlc_close/sequence_length/strided_slice_3/stack_2"
  attr {
    key: "Index"
    value {
      type: DT_INT32
    }
  }
  attr {
    key: "T"
    value {
      type: DT_INT32
    }
  }
  attr {
    key: "_output_shapes"
    value {
      list {
        shape {
          dim {
            size: 1
          }
        }
      }
    }
  }
  attr {
    key: "begin_mask"
    value {
      i: 1
    }
  }
  attr {
    key: "ellipsis_mask"
    value {
      i: 0
    }
  }
  attr {
    key: "end_mask"
    value {
      i: 0
    }
  }
  attr {
    key: "new_axis_mask"
    value {
      i: 0
    }
  }
  attr {
    key: "shrink_axis_mask"
    value {
      i: 0
    }
  }
}
node {
  name: "rnn_model/sequence_input_layer/sequence_features/ohlc_close/sequence_length/sub"
  op: "Sub"
  input: "rnn_model/sequence_input_layer/sequence_features/ohlc_close/sequence_length/strided_slice_2"
  input: "rnn_model/sequence_input_layer/sequence_features/ohlc_close/sequence_length/strided_slice_3"
  attr {
    key: "T"
    value {
      type: DT_INT32
    }
  }
  attr {
    key: "_output_shapes"
    value {
      list {
        shape {
          dim {
            size: 1
          }
        }
      }
    }
  }
}
node {
  name: "rnn_model/sequence_input_layer/sequence_features/ohlc_close/sequence_length/zeros/Const"
  op: "Const"
  attr {
    key: "_output_shapes"
    value {
      list {
        shape {
        }
      }
    }
  }
  attr {
    key: "dtype"
    value {
      type: DT_INT64
    }
  }
  attr {
    key: "value"
    value {
      tensor {
        dtype: DT_INT64
        tensor_shape {
        }
        int64_val: 0
      }
    }
  }
}
node {
  name: "rnn_model/sequence_input_layer/sequence_features/ohlc_close/sequence_length/zeros"
  op: "Fill"
  input: "rnn_model/sequence_input_layer/sequence_features/ohlc_close/sequence_length/sub"
  input: "rnn_model/sequence_input_layer/sequence_features/ohlc_close/sequence_length/zeros/Const"
  attr {
    key: "T"
    value {
      type: DT_INT64
    }
  }
  attr {
    key: "_output_shapes"
    value {
      list {
        shape {
          dim {
            size: -1
          }
        }
      }
    }
  }
  attr {
    key: "index_type"
    value {
      type: DT_INT32
    }
  }
}
node {
  name: "rnn_model/sequence_input_layer/sequence_features/ohlc_close/sequence_length/axis"
  op: "Const"
  attr {
    key: "_output_shapes"
    value {
      list {
        shape {
        }
      }
    }
  }
  attr {
    key: "dtype"
    value {
      type: DT_INT32
    }
  }
  attr {
    key: "value"
    value {
      tensor {
        dtype: DT_INT32
        tensor_shape {
        }
        int_val: 0
      }
    }
  }
}
node {
  name: "rnn_model/sequence_input_layer/sequence_features/ohlc_close/sequence_length"
  op: "ConcatV2"
  input: "rnn_model/sequence_input_layer/sequence_features/ohlc_close/sequence_length/Cast"
  input: "rnn_model/sequence_input_layer/sequence_features/ohlc_close/sequence_length/zeros"
  input: "rnn_model/sequence_input_layer/sequence_features/ohlc_close/sequence_length/axis"
  attr {
    key: "N"
    value {
      i: 2
    }
  }
  attr {
    key: "T"
    value {
      type: DT_INT64
    }
  }
  attr {
    key: "Tidx"
    value {
      type: DT_INT32
    }
  }
  attr {
    key: "_output_shapes"
    value {
      list {
        shape {
          dim {
            size: -1
          }
        }
      }
    }
  }
}
node {
  name: "rnn_model/sequence_input_layer/sequence_features/ohlc_close/Shape_1"
  op: "Shape"
  input: "rnn_model/sequence_input_layer/sequence_features/ohlc_close/Reshape"
  attr {
    key: "T"
    value {
      type: DT_FLOAT
    }
  }
  attr {
    key: "_output_shapes"
    value {
      list {
        shape {
          dim {
            size: 3
          }
        }
      }
    }
  }
  attr {
    key: "out_type"
    value {
      type: DT_INT32
    }
  }
}
node {
  name: "rnn_model/sequence_input_layer/sequence_features/ohlc_close/strided_slice_1/stack"
  op: "Const"
  attr {
    key: "_output_shapes"
    value {
      list {
        shape {
          dim {
            size: 1
          }
        }
      }
    }
  }
  attr {
    key: "dtype"
    value {
      type: DT_INT32
    }
  }
  attr {
    key: "value"
    value {
      tensor {
        dtype: DT_INT32
        tensor_shape {
          dim {
            size: 1
          }
        }
        int_val: 0
      }
    }
  }
}
node {
  name: "rnn_model/sequence_input_layer/sequence_features/ohlc_close/strided_slice_1/stack_1"
  op: "Const"
  attr {
    key: "_output_shapes"
    value {
      list {
        shape {
          dim {
            size: 1
          }
        }
      }
    }
  }
  attr {
    key: "dtype"
    value {
      type: DT_INT32
    }
  }
  attr {
    key: "value"
    value {
      tensor {
        dtype: DT_INT32
        tensor_shape {
          dim {
            size: 1
          }
        }
        int_val: 1
      }
    }
  }
}
node {
  name: "rnn_model/sequence_input_layer/sequence_features/ohlc_close/strided_slice_1/stack_2"
  op: "Const"
  attr {
    key: "_output_shapes"
    value {
      list {
        shape {
          dim {
            size: 1
          }
        }
      }
    }
  }
  attr {
    key: "dtype"
    value {
      type: DT_INT32
    }
  }
  attr {
    key: "value"
    value {
      tensor {
        dtype: DT_INT32
        tensor_shape {
          dim {
            size: 1
          }
        }
        int_val: 1
      }
    }
  }
}
node {
  name: "rnn_model/sequence_input_layer/sequence_features/ohlc_close/strided_slice_1"
  op: "StridedSlice"
  input: "rnn_model/sequence_input_layer/sequence_features/ohlc_close/Shape_1"
  input: "rnn_model/sequence_input_layer/sequence_features/ohlc_close/strided_slice_1/stack"
  input: "rnn_model/sequence_input_layer/sequence_features/ohlc_close/strided_slice_1/stack_1"
  input: "rnn_model/sequence_input_layer/sequence_features/ohlc_close/strided_slice_1/stack_2"
  attr {
    key: "Index"
    value {
      type: DT_INT32
    }
  }
  attr {
    key: "T"
    value {
      type: DT_INT32
    }
  }
  attr {
    key: "_output_shapes"
    value {
      list {
        shape {
        }
      }
    }
  }
  attr {
    key: "begin_mask"
    value {
      i: 0
    }
  }
  attr {
    key: "ellipsis_mask"
    value {
      i: 0
    }
  }
  attr {
    key: "end_mask"
    value {
      i: 0
    }
  }
  attr {
    key: "new_axis_mask"
    value {
      i: 0
    }
  }
  attr {
    key: "shrink_axis_mask"
    value {
      i: 1
    }
  }
}
node {
  name: "rnn_model/sequence_input_layer/sequence_features/ohlc_close/strided_slice_2/stack"
  op: "Const"
  attr {
    key: "_output_shapes"
    value {
      list {
        shape {
          dim {
            size: 1
          }
        }
      }
    }
  }
  attr {
    key: "dtype"
    value {
      type: DT_INT32
    }
  }
  attr {
    key: "value"
    value {
      tensor {
        dtype: DT_INT32
        tensor_shape {
          dim {
            size: 1
          }
        }
        int_val: 1
      }
    }
  }
}
node {
  name: "rnn_model/sequence_input_layer/sequence_features/ohlc_close/strided_slice_2/stack_1"
  op: "Const"
  attr {
    key: "_output_shapes"
    value {
      list {
        shape {
          dim {
            size: 1
          }
        }
      }
    }
  }
  attr {
    key: "dtype"
    value {
      type: DT_INT32
    }
  }
  attr {
    key: "value"
    value {
      tensor {
        dtype: DT_INT32
        tensor_shape {
          dim {
            size: 1
          }
        }
        int_val: 2
      }
    }
  }
}
node {
  name: "rnn_model/sequence_input_layer/sequence_features/ohlc_close/strided_slice_2/stack_2"
  op: "Const"
  attr {
    key: "_output_shapes"
    value {
      list {
        shape {
          dim {
            size: 1
          }
        }
      }
    }
  }
  attr {
    key: "dtype"
    value {
      type: DT_INT32
    }
  }
  attr {
    key: "value"
    value {
      tensor {
        dtype: DT_INT32
        tensor_shape {
          dim {
            size: 1
          }
        }
        int_val: 1
      }
    }
  }
}
node {
  name: "rnn_model/sequence_input_layer/sequence_features/ohlc_close/strided_slice_2"
  op: "StridedSlice"
  input: "rnn_model/sequence_input_layer/sequence_features/ohlc_close/Shape_1"
  input: "rnn_model/sequence_input_layer/sequence_features/ohlc_close/strided_slice_2/stack"
  input: "rnn_model/sequence_input_layer/sequence_features/ohlc_close/strided_slice_2/stack_1"
  input: "rnn_model/sequence_input_layer/sequence_features/ohlc_close/strided_slice_2/stack_2"
  attr {
    key: "Index"
    value {
      type: DT_INT32
    }
  }
  attr {
    key: "T"
    value {
      type: DT_INT32
    }
  }
  attr {
    key: "_output_shapes"
    value {
      list {
        shape {
        }
      }
    }
  }
  attr {
    key: "begin_mask"
    value {
      i: 0
    }
  }
  attr {
    key: "ellipsis_mask"
    value {
      i: 0
    }
  }
  attr {
    key: "end_mask"
    value {
      i: 0
    }
  }
  attr {
    key: "new_axis_mask"
    value {
      i: 0
    }
  }
  attr {
    key: "shrink_axis_mask"
…
          }
        }
      }
    }
  }
  function {
    signature {
      name: "rnn_model_sequence_input_layer_sequence_features_assert_all_equal_assert_equal_5_Assert_AssertGuard_false_7775"
      input_arg {
        name: "assert_rnn_model_sequence_input_layer_sequence_features_assert_all_equal_assert_equal_5_all"
        type: DT_BOOL
      }
      input_arg {
        name: "assert_rnn_model_sequence_input_layer_sequence_features_bas_rq_sequence_length"
        type: DT_INT64
      }
      input_arg {
        name: "assert_rnn_model_sequence_input_layer_sequence_features_ohlc_lsw_sequence_length"
        type: DT_INT64
      }
      output_arg {
        name: "identity"
        type: DT_BOOL
      }
      output_arg {
        name: "optionalfromvalue"
        type: DT_VARIANT
      }
      output_arg {
        name: "optionalfromvalue_1"
        type: DT_VARIANT
      }
      output_arg {
        name: "optionalfromvalue_2"
        type: DT_VARIANT
      }
      is_stateful: true
    }
    node_def {
      name: "Assert/data_0"
      op: "Const"
      attr {
        key: "_output_shapes"
        value {
          list {
            shape {
            }
          }
        }
      }
      attr {
        key: "dtype"
        value {
          type: DT_STRING
        }
      }
      attr {
        key: "value"
        value {
          tensor {
            dtype: DT_STRING
            tensor_shape {
            }
            string_val: "Condition x == y did not hold element-wise:"
          }
        }
      }
      experimental_debug_info {
        original_node_names: "Assert/data_0"
      }
    }
    node_def {
      name: "Assert/data_1"
      op: "Const"
      attr {
        key: "_output_shapes"
        value {
          list {
            shape {
            }
          }
        }
      }
      attr {
        key: "dtype"
        value {
          type: DT_STRING
        }
      }
      attr {
        key: "value"
        value {
          tensor {
            dtype: DT_STRING
            tensor_shape {
            }
            string_val: "x (rnn_model/sequence_input_layer/sequence_features/bas_rq/sequence_length:0) = "
          }
        }
      }
      experimental_debug_info {
        original_node_names: "Assert/data_1"
      }
    }
    node_def {
      name: "Assert/data_3"
      op: "Const"
      attr {
        key: "_output_shapes"
        value {
          list {
            shape {
            }
          }
        }
      }
      attr {
        key: "dtype"
        value {
          type: DT_STRING
        }
      }
      attr {
        key: "value"
        value {
          tensor {
            dtype: DT_STRING
            tensor_shape {
            }
            string_val: "y (rnn_model/sequence_input_layer/sequence_features/ohlc_lsw/sequence_length:0) = "
          }
        }
      }
      experimental_debug_info {
        original_node_names: "Assert/data_3"
      }
    }
    node_def {
      name: "Assert"
      op: "Assert"
      input: "assert_rnn_model_sequence_input_layer_sequence_features_assert_all_equal_assert_equal_5_all"
      input: "Assert/data_0:output:0"
      input: "Assert/data_1:output:0"
      input: "assert_rnn_model_sequence_input_layer_sequence_features_bas_rq_sequence_length"
      input: "Assert/data_3:output:0"
      input: "assert_rnn_model_sequence_input_layer_sequence_features_ohlc_lsw_sequence_length"
      attr {
        key: "T"
        value {
          list {
            type: DT_STRING
            type: DT_STRING
            type: DT_INT64
            type: DT_STRING
            type: DT_INT64
          }
        }
      }
      attr {
        key: "_output_shapes"
        value {
          list {
          }
        }
      }
      attr {
        key: "summarize"
        value {
          i: 3
        }
      }
      experimental_debug_info {
        original_node_names: "Assert"
      }
    }
    node_def {
      name: "Identity"
      op: "Identity"
      input: "assert_rnn_model_sequence_input_layer_sequence_features_assert_all_equal_assert_equal_5_all"
      input: "^Assert"
      attr {
        key: "T"
        value {
          type: DT_BOOL
        }
      }
      attr {
        key: "_output_shapes"
        value {
          list {
            shape {
            }
          }
        }
      }
      experimental_debug_info {
        original_node_names: "Identity"
      }
    }
    node_def {
      name: "OptionalFromValue"
      op: "OptionalFromValue"
      input: "Assert/data_0:output:0"
      attr {
        key: "Toutput_types"
        value {
          list {
            type: DT_STRING
          }
        }
      }
      attr {
        key: "_output_shapes"
        value {
          list {
            shape {
            }
          }
        }
      }
      experimental_debug_info {
        original_node_names: "OptionalFromValue"
      }
    }
    node_def {
      name: "OptionalFromValue_1"
      op: "OptionalFromValue"
      input: "Assert/data_1:output:0"
      attr {
        key: "Toutput_types"
        value {
          list {
            type: DT_STRING
          }
        }
      }
      attr {
        key: "_output_shapes"
        value {
          list {
            shape {
            }
          }
        }
      }
      experimental_debug_info {
        original_node_names: "OptionalFromValue_1"
      }
    }
    node_def {
      name: "OptionalFromValue_2"
      op: "OptionalFromValue"
      input: "Assert/data_3:output:0"
      attr {
        key: "Toutput_types"
        value {
          list {
            type: DT_STRING
          }
        }
      }
      attr {
        key: "_output_shapes"
        value {
          list {
            shape {
            }
          }
        }
      }
      experimental_debug_info {
        original_node_names: "OptionalFromValue_2"
      }
    }
    ret {
      key: "identity"
      value: "Identity:output:0"
    }
    ret {
      key: "optionalfromvalue"
      value: "OptionalFromValue:optional:0"
    }
    ret {
      key: "optionalfromvalue_1"
      value: "OptionalFromValue_1:optional:0"
    }
    ret {
      key: "optionalfromvalue_2"
      value: "OptionalFromValue_2:optional:0"
    }
    attr {
      key: "_input_shapes"
      value {
        list {
          shape {
          }
          shape {
            dim {
              size: -1
            }
          }
          shape {
            dim {
              size: -1
            }
          }
        }
      }
    }
  }
  function {
    signature {
      name: "global_step_cond_false_7120"
      input_arg {
        name: "placeholder"
        type: DT_RESOURCE
      }
      input_arg {
        name: "global_step_initializer_zeros_0"
        type: DT_INT64
      }
      output_arg {
        name: "global_step_initializer_zeros"
        type: DT_INT64
      }
    }
    ret {
      key: "global_step_initializer_zeros"
      value: "global_step_initializer_zeros_0"
    }
    attr {
      key: "_input_shapes"
      value {
        list {
          shape {
            unknown_rank: true
          }
          shape {
          }
        }
      }
    }
  }
  function {
    signature {
      name: "rnn_model_sequence_input_layer_sequence_features_assert_all_equal_assert_equal_9_Assert_AssertGuard_true_7844"
      input_arg {
        name: "identity_rnn_model_sequence_input_layer_sequence_features_assert_all_equal_assert_equal_9_all"
        type: DT_BOOL
      }
      input_arg {
        name: "placeholder"
        type: DT_INT64
      }
      input_arg {
        name: "placeholder_1"
        type: DT_INT64
      }
      output_arg {
        name: "identity"
        type: DT_BOOL
      }
      output_arg {
        name: "optionalnone"
        type: DT_VARIANT
      }
      output_arg {
        name: "optionalnone_1"
        type: DT_VARIANT
      }
      output_arg {
        name: "optionalnone_2"
        type: DT_VARIANT
      }
    }
    node_def {
      name: "NoOp"
      op: "NoOp"
      attr {
        key: "_output_shapes"
        value {
          list {
          }
        }
      }
      experimental_debug_info {
        original_node_names: "NoOp"
      }
    }
    node_def {
      name: "Identity"
      op: "Identity"
      input: "identity_rnn_model_sequence_input_layer_sequence_features_assert_all_equal_assert_equal_9_all"
      input: "^NoOp"
      attr {
        key: "T"
        value {
          type: DT_BOOL
        }
      }
      attr {
        key: "_output_shapes"
        value {
          list {
            shape {
            }
          }
        }
      }
      experimental_debug_info {
        original_node_names: "Identity"
      }
    }
    node_def {
      name: "OptionalNone"
      op: "OptionalNone"
      attr {
        key: "_output_shapes"
        value {
          list {
            shape {
            }
          }
        }
      }
      experimental_debug_info {
        original_node_names: "OptionalNone"
      }
    }
    node_def {
      name: "OptionalNone_1"
      op: "OptionalNone"
      attr {
        key: "_output_shapes"
        value {
          list {
            shape {
            }
          }
        }
      }
      experimental_debug_info {
        original_node_names: "OptionalNone_1"
      }
    }
    node_def {
      name: "OptionalNone_2"
      op: "OptionalNone"
      attr {
        key: "_output_shapes"
        value {
          list {
            shape {
            }
          }
        }
      }
      experimental_debug_info {
        original_node_names: "OptionalNone_2"
      }
    }
    ret {
      key: "identity"
      value: "Identity:output:0"
    }
    ret {
      key: "optionalnone"
      value: "OptionalNone:optional:0"
    }
    ret {
      key: "optionalnone_1"
      value: "OptionalNone_1:optional:0"
    }
    ret {
      key: "optionalnone_2"
      value: "OptionalNone_2:optional:0"
    }
    attr {
      key: "_input_shapes"
      value {
        list {
          shape {
          }
          shape {
            dim {
              size: -1
            }
          }
          shape {
            dim {
              size: -1
            }
          }
        }
      }
    }
  }
  function {
    signature {
      name: "__inference_tf_data_experimental_parallel_interleave_read_one_file_7146"
      input_arg {
        name: "args_0"
        type: DT_STRING
      }
      output_arg {
        name: "identity"
        type: DT_VARIANT
      }
      is_stateful: true
      control_output: "TFRecordDataset"
    }
    node_def {
      name: "compression_type"
      op: "Const"
      attr {
        key: "_output_shapes"
        value {
          list {
            shape {
            }
          }
        }
      }
      attr {
        key: "dtype"
        value {
          type: DT_STRING
        }
      }
      attr {
        key: "value"
        value {
          tensor {
            dtype: DT_STRING
            tensor_shape {
            }
            string_val: ""
          }
        }
      }
      experimental_debug_info {
        original_node_names: "compression_type"
      }
    }
    node_def {
      name: "buffer_size"
      op: "Const"
      attr {
        key: "_output_shapes"
        value {
          list {
            shape {
            }
          }
        }
      }
      attr {
        key: "dtype"
        value {
          type: DT_INT64
        }
      }
      attr {
        key: "value"
        value {
          tensor {
            dtype: DT_INT64
            tensor_shape {
            }
            int64_val: 262144
          }
        }
      }
      experimental_debug_info {
        original_node_names: "buffer_size"
      }
    }
    node_def {
      name: "TFRecordDataset"
      op: "TFRecordDataset"
      input: "args_0"
      input: "compression_type:output:0"
      input: "buffer_size:output:0"
      attr {
        key: "_output_shapes"
        value {
          list {
            shape {
            }
          }
        }
      }
      experimental_debug_info {
        original_node_names: "TFRecordDataset"
      }
    }
    node_def {
      name: "Identity"
      op: "Identity"
      input: "TFRecordDataset:handle:0"
      input: "^TFRecordDataset"
      attr {
        key: "T"
        value {
          type: DT_VARIANT
        }
      }
      attr {
        key: "_output_shapes"
        value {
          list {
            shape {
            }
          }
        }
      }
      experimental_debug_info {
        original_node_names: "Identity"
      }
    }
    ret {
      key: "identity"
      value: "Identity:output:0"
    }
    attr {
      key: "_input_shapes"
      value {
        list {
          shape {
          }
        }
      }
    }
    control_ret {
      key: "TFRecordDataset"
      value: "TFRecordDataset"
    }
    arg_attr {
      value {
        attr {
          key: "_user_specified_name"
          value {
            s: "args_0"
          }
        }
      }
    }
  }
  function {
    signature {
      name: "__inference_Dataset_map_parse_fn_7201"
      input_arg {
        name: "args_0"
        type: DT_STRING
      }
      output_arg {
        name: "identity"
        type: DT_VARIANT
      }
      output_arg {
        name: "identity_1"
        type: DT_VARIANT
      }
      output_arg {
        name: "identity_2"
        type: DT_VARIANT
      }
      output_arg {
        name: "identity_3"
        type: DT_VARIANT
      }
      output_arg {
        name: "identity_4"
        type: DT_VARIANT
      }
      output_arg {
        name: "identity_5"
        type: DT_VARIANT
      }
      output_arg {
        name: "identity_6"
        type: DT_VARIANT
      }
      output_arg {
        name: "identity_7"
        type: DT_FLOAT
      }
    }
    node_def {
      name: "ParseSingleSequenceExample/ParseSequenceExample/ParseSequenceExampleV2/debug_name"
      op: "Const"
      attr {
        key: "_output_shapes"
        value {
          list {
            shape {
              dim {
              }
            }
          }
        }
      }
      attr {
        key: "dtype"
        value {
          type: DT_STRING
        }
      }
      attr {
        key: "value"
        value {
          tensor {
            dtype: DT_STRING
            tensor_shape {
              dim {
              }
            }
          }
        }
      }
      experimental_debug_info {
        original_node_names: "ParseSingleSequenceExample/ParseSequenceExample/ParseSequenceExampleV2/debug_name"
      }
    }
    node_def {
      name: "ParseSingleSequenceExample/ParseSequenceExample/ParseSequenceExampleV2/context_sparse_keys"
      op: "Const"
      attr {
        key: "_output_shapes"
        value {
          list {
            shape {
              dim {
              }
            }
          }
        }
      }
      attr {
        key: "dtype"
        value {
          type: DT_STRING
        }
      }
      attr {
        key: "value"
        value {
          tensor {
            dtype: DT_STRING
            tensor_shape {
              dim {
              }
            }
          }
        }
      }
      experimental_debug_info {
        original_node_names: "ParseSingleSequenceExample/ParseSequenceExample/ParseSequenceExampleV2/context_sparse_keys"
      }
    }
    node_def {
      name: "ParseSingleSequenceExample/ParseSequenceExample/ParseSequenceExampleV2/context_dense_keys"
      op: "Const"
      attr {
        key: "_output_shapes"
        value {
          list {
            shape {
              dim {
              }
            }
          }
        }
      }
      attr {
        key: "dtype"
        value {
          type: DT_STRING
        }
      }
      attr {
        key: "value"
        value {
          tensor {
            dtype: DT_STRING
            tensor_shape {
              dim {
              }
            }
          }
        }
      }
      experimental_debug_info {
        original_node_names: "ParseSingleSequenceExample/ParseSequenceExample/ParseSequenceExampleV2/context_dense_keys"
      }
    }
    node_def {
      name: "ParseSingleSequenceExample/ParseSequenceExample/ParseSequenceExampleV2/context_ragged_keys"
      op: "Const"
      attr {
        key: "_output_shapes"
        value {
          list {
            shape {
              dim {
              }
            }
          }
        }
      }
      attr {
        key: "dtype"
        value {
          type: DT_STRING
        }
      }
      attr {
        key: "value"
        value {
          tensor {
            dtype: DT_STRING
            tensor_shape {
              dim {
              }
            }
          }
        }
      }
      experimental_debug_info {
        original_node_names: "ParseSingleSequenceExample/ParseSequenceExample/ParseSequenceExampleV2/context_ragged_keys"
      }
    }
    node_def {
      name: "ParseSingleSequenceExample/ParseSequenceExample/ParseSequenceExampleV2/feature_list_sparse_keys"
      op: "Const"
      attr {
        key: "_output_shapes"
        value {
          list {
            shape {
              dim {
                size: 7
              }
            }
          }
        }
      }
      attr {
        key: "dtype"
        value {
          type: DT_STRING
        }
      }
      attr {
        key: "value"
        value {
          tensor {
            dtype: DT_STRING
            tensor_shape {
              dim {
                size: 7
              }
            }
            string_val: "bas_rq"
            string_val: "cmmc_max"
            string_val: "ohlc_close"
            string_val: "ohlc_lsw"
            string_val: "ohlc_pcr"
            string_val: "ohlc_usw"
            string_val: "vol_rq"
          }
        }
      }
      experimental_debug_info {
        original_node_names: "ParseSingleSequenceExample/ParseSequenceExample/ParseSequenceExampleV2/feature_list_sparse_keys"
      }
    }
    node_def {
      name: "ParseSingleSequenceExample/ParseSequenceExample/ParseSequenceExampleV2/feature_list_dense_keys"
      op: "Const"
      attr {
        key: "_output_shapes"
        value {
          list {
            shape {
              dim {
                size: 1
              }
            }
          }
        }
      }
      attr {
        key: "dtype"
        value {
          type: DT_STRING
        }
      }
      attr {
        key: "value"
        value {
          tensor {
            dtype: DT_STRING
            tensor_shape {
              dim {
                size: 1
              }
            }
            string_val: "ohlc_close_label"
          }
        }
      }
      experimental_debug_info {
        original_node_names: "ParseSingleSequenceExample/ParseSequenceExample/ParseSequenceExampleV2/feature_list_dense_keys"
      }
    }
    node_def {
      name: "ParseSingleSequenceExample/ParseSequenceExample/ParseSequenceExampleV2/feature_list_ragged_keys"
      op: "Const"
      attr {
        key: "_output_shapes"
        value {
          list {
            shape {
              dim {
              }
            }
          }
        }
      }
      attr {
        key: "dtype"
        value {
          type: DT_STRING
        }
      }
      attr {
        key: "value"
        value {
          tensor {
            dtype: DT_STRING
            tensor_shape {
              dim {
              }
            }
          }
        }
      }
      experimental_debug_info {
        original_node_names: "ParseSingleSequenceExample/ParseSequenceExample/ParseSequenceExampleV2/feature_list_ragged_keys"
      }
    }
    node_def {
      name: "ParseSingleSequenceExample/ParseSequenceExample/ParseSequenceExampleV2/feature_list_dense_missing_assumed_empty"
      op: "Const"
      attr {
        key: "_output_shapes"
        value {
          list {
            shape {
              dim {
                size: 1
              }
            }
          }
        }
      }
      attr {
        key: "dtype"
        value {
          type: DT_BOOL
        }
      }
      attr {
        key: "value"
        value {
          tensor {
            dtype: DT_BOOL
            tensor_shape {
              dim {
                size: 1
              }
            }
            bool_val: false
          }
        }
      }
      experimental_debug_info {
        original_node_names: "ParseSingleSequenceExample/ParseSequenceExample/ParseSequenceExampleV2/feature_list_dense_missing_assumed_empty"
      }
    }
    node_def {
      name: "ParseSingleSequenceExample/ParseSequenceExample/ParseSequenceExampleV2"
      op: "ParseSequenceExampleV2"
      input: "args_0"
      input: "ParseSingleSequenceExample/ParseSequenceExample/ParseSequenceExampleV2/debug_name:output:0"
      input: "ParseSingleSequenceExample/ParseSequenceExample/ParseSequenceExampleV2/context_sparse_keys:output:0"
      input: "ParseSingleSequenceExample/ParseSequenceExample/ParseSequenceExampleV2/context_dense_keys:output:0"
      input: "ParseSingleSequenceExample/ParseSequenceExample/ParseSequenceExampleV2/context_ragged_keys:output:0"
      input: "ParseSingleSequenceExample/ParseSequenceExample/ParseSequenceExampleV2/feature_list_sparse_keys:output:0"
      input: "ParseSingleSequenceExample/ParseSequenceExample/ParseSequenceExampleV2/feature_list_dense_keys:output:0"
      input: "ParseSingleSequenceExample/ParseSequenceExample/ParseSequenceExampleV2/feature_list_ragged_keys:output:0"
      input: "ParseSingleSequenceExample/ParseSequenceExample/ParseSequenceExampleV2/feature_list_dense_missing_assumed_empty:output:0"
      attr {
        key: "Ncontext_sparse"
        value {
          i: 0
        }
      }
      attr {
        key: "Nfeature_list_dense"
        value {
          i: 1
        }
      }
      attr {
        key: "Nfeature_list_sparse"
        value {
          i: 7
        }
      }
      attr {
        key: "Tcontext_dense"
        value {
          list {
          }
        }
      }
      attr {
        key: "_output_shapes"
        value {
          list {
            shape {
              dim {
                size: -1
              }
              dim {
                size: 2
              }
            }
            shape {
              dim {
                size: -1
              }
              dim {
                size: 2
              }
            }
            shape {
              dim {
                size: -1
              }
              dim {
                size: 2
              }
            }
            shape {
              dim {
                size: -1
              }
              dim {
                size: 2
              }
            }
            shape {
              dim {
                size: -1
              }
              dim {
                size: 2
              }
            }
            shape {
              dim {
                size: -1
              }
              dim {
                size: 2
              }
            }
            shape {
              dim {
                size: -1
              }
              dim {
                size: 2
              }
            }
            shape {
              dim {
                size: -1
              }
            }
            shape {
              dim {
                size: -1
              }
            }
            shape {
              dim {
                size: -1
              }
            }
            shape {
              dim {
                size: -1
              }
            }
            shape {
              dim {
                size: -1
              }
            }
            shape {
              dim {
                size: -1
              }
            }
            shape {
              dim {
                size: -1
              }
            }
            shape {
              dim {
                size: 2
              }
            }
            shape {
              dim {
                size: 2
              }
            }
            shape {
              dim {
                size: 2
              }
            }
            shape {
              dim {
                size: 2
              }
            }
            shape {
              dim {
                size: 2
              }
            }
            shape {
              dim {
                size: 2
              }
            }
            shape {
              dim {
                size: 2
              }
            }
            shape {
              dim {
                size: -1
              }
            }
            shape {
            }
          }
        }
      }
      attr {
        key: "context_dense_shapes"
        value {
          list {
          }
        }
      }
      attr {
        key: "context_ragged_split_types"
        value {
          list {
          }
        }
      }
      attr {
        key: "context_ragged_value_types"
        value {
          list {
          }
        }
      }
      attr {
        key: "context_sparse_types"
        value {
          list {
          }
        }
      }
      attr {
        key: "feature_list_dense_shapes"
        value {
          list {
            shape {
            }
          }
        }
      }
      attr {
        key: "feature_list_dense_types"
        value {
          list {
            type: DT_FLOAT
          }
        }
      }
      attr {
        key: "feature_list_ragged_split_types"
        value {
          list {
          }
        }
      }
      attr {
        key: "feature_list_ragged_value_types"
        value {
          list {
          }
        }
      }
      attr {
        key: "feature_list_sparse_types"
        value {
          list {
            type: DT_FLOAT
            type: DT_FLOAT
            type: DT_FLOAT
            type: DT_FLOAT
            type: DT_FLOAT
            type: DT_FLOAT
            type: DT_FLOAT
          }
        }
      }
      experimental_debug_info {
        original_node_names: "ParseSingleSequenceExample/ParseSequenceExample/ParseSequenceExampleV2"
      }
    }
    node_def {
      name: "SerializeSparse"
      op: "SerializeSparse"
      input: "ParseSingleSequenceExample/ParseSequenceExample/ParseSequenceExampleV2:feature_list_sparse_indices:0"
      input: "ParseSingleSequenceExample/ParseSequenceExample/ParseSequenceExampleV2:feature_list_sparse_values:0"
      input: "ParseSingleSequenceExample/ParseSequenceExample/ParseSequenceExampleV2:feature_list_sparse_shapes:0"
      attr {
        key: "T"
        value {
          type: DT_FLOAT
        }
      }
      attr {
        key: "_output_shapes"
        value {
          list {
            shape {
              dim {
                size: 3
              }
            }
          }
        }
      }
      attr {
        key: "out_type"
        value {
          type: DT_VARIANT
        }
      }
      experimental_debug_info {
        original_node_names: "SerializeSparse"
      }
    }
    node_def {
      name: "SerializeSparse_1"
      op: "SerializeSparse"
      input: "ParseSingleSequenceExample/ParseSequenceExample/ParseSequenceExampleV2:feature_list_sparse_indices:1"
      input: "ParseSingleSequenceExample/ParseSequenceExample/ParseSequenceExampleV2:feature_list_sparse_values:1"
      input: "ParseSingleSequenceExample/ParseSequenceExample/ParseSequenceExampleV2:feature_list_sparse_shapes:1"
      attr {
        key: "T"
        value {
          type: DT_FLOAT
        }
      }
      attr {
        key: "_output_shapes"
        value {
          list {
            shape {
              dim {
                size: 3
              }
            }
          }
        }
      }
      attr {
        key: "out_type"
        value {
          type: DT_VARIANT
        }
      }
      experimental_debug_info {
        original_node_names: "SerializeSparse_1"
      }
    }
    node_def {
      name: "SerializeSparse_2"
      op: "SerializeSparse"
      input: "ParseSingleSequenceExample/ParseSequenceExample/ParseSequenceExampleV2:feature_list_sparse_indices:2"
      input: "ParseSingleSequenceExample/ParseSequenceExample/ParseSequenceExampleV2:feature_list_sparse_values:2"
      input: "ParseSingleSequenceExample/ParseSequenceExample/ParseSequenceExampleV2:feature_list_sparse_shapes:2"
      attr {
        key: "T"
        value {
          type: DT_FLOAT
        }
      }
      attr {
        key: "_output_shapes"
        value {
          list {
            shape {
              dim {
                size: 3
              }
            }
          }
        }
      }
      attr {
        key: "out_type"
        value {
          type: DT_VARIANT
        }
      }
      experimental_debug_info {
        original_node_names: "SerializeSparse_2"
      }
    }
    node_def {
      name: "SerializeSparse_3"
      op: "SerializeSparse"
      input: "ParseSingleSequenceExample/ParseSequenceExample/ParseSequenceExampleV2:feature_list_sparse_indices:3"
      input: "ParseSingleSequenceExample/ParseSequenceExample/ParseSequenceExampleV2:feature_list_sparse_values:3"
      input: "ParseSingleSequenceExample/ParseSequenceExample/ParseSequenceExampleV2:feature_list_sparse_shapes:3"
      attr {
        key: "T"
        value {
          type: DT_FLOAT
        }
      }
      attr {
        key: "_output_shapes"
        value {
          list {
            shape {
              dim {
                size: 3
              }
            }
          }
        }
      }
      attr {
        key: "out_type"
        value {
          type: DT_VARIANT
        }
      }
      experimental_debug_info {
        original_node_names: "SerializeSparse_3"
      }
    }
    node_def {
      name: "SerializeSparse_4"
      op: "SerializeSparse"
      input: "ParseSingleSequenceExample/ParseSequenceExample/ParseSequenceExampleV2:feature_list_sparse_indices:4"
      input: "ParseSingleSequenceExample/ParseSequenceExample/ParseSequenceExampleV2:feature_list_sparse_values:4"
      input: "ParseSingleSequenceExample/ParseSequenceExample/ParseSequenceExampleV2:feature_list_sparse_shapes:4"
      attr {
        key: "T"
        value {
          type: DT_FLOAT
        }
      }
      attr {
        key: "_output_shapes"
        value {
          list {
            shape {
              dim {
                size: 3
              }
            }
          }
        }
      }
      attr {
        key: "out_type"
        value {
          type: DT_VARIANT
        }
      }
      experimental_debug_info {
        original_node_names: "SerializeSparse_4"
      }
    }
    node_def {
      name: "SerializeSparse_5"
      op: "SerializeSparse"
      input: "ParseSingleSequenceExample/ParseSequenceExample/ParseSequenceExampleV2:feature_list_sparse_indices:5"
      input: "ParseSingleSequenceExample/ParseSequenceExample/ParseSequenceExampleV2:feature_list_sparse_values:5"
      input: "ParseSingleSequenceExample/ParseSequenceExample/ParseSequenceExampleV2:feature_list_sparse_shapes:5"
      attr {
        key: "T"
        value {
          type: DT_FLOAT
        }
      }
      attr {
        key: "_output_shapes"
        value {
          list {
            shape {
              dim {
                size: 3
              }
            }
          }
        }
      }
      attr {
        key: "out_type"
        value {
          type: DT_VARIANT
        }
      }
      experimental_debug_info {
        original_node_names: "SerializeSparse_5"
      }
    }
    node_def {
      name: "SerializeSparse_6"
      op: "SerializeSparse"
      input: "ParseSingleSequenceExample/ParseSequenceExample/ParseSequenceExampleV2:feature_list_sparse_indices:6"
      input: "ParseSingleSequenceExample/ParseSequenceExample/ParseSequenceExampleV2:feature_list_sparse_values:6"
      input: "ParseSingleSequenceExample/ParseSequenceExample/ParseSequenceExampleV2:feature_list_sparse_shapes:6"
      attr {
        key: "T"
        value {
          type: DT_FLOAT
        }
      }
      attr {
        key: "_output_shapes"
        value {
          list {
            shape {
              dim {
                size: 3
              }
            }
          }
        }
      }
      attr {
        key: "out_type"
        value {
          type: DT_VARIANT
        }
      }
      experimental_debug_info {
        original_node_names: "SerializeSparse_6"
      }
    }
    node_def {
      name: "Identity"
      op: "Identity"
      input: "SerializeSparse:serialized_sparse:0"
      attr {
        key: "T"
        value {
          type: DT_VARIANT
        }
      }
      attr {
        key: "_output_shapes"
        value {
          list {
            shape {
              dim {
                size: 3
              }
            }
          }
        }
      }
      experimental_debug_info {
        original_node_names: "Identity"
      }
    }
    node_def {
      name: "Identity_1"
      op: "Identity"
      input: "SerializeSparse_1:serialized_sparse:0"
      attr {
        key: "T"
        value {
          type: DT_VARIANT
        }
      }
      attr {
        key: "_output_shapes"
        value {
          list {
            shape {
              dim {
                size: 3
              }
            }
          }
        }
      }
      experimental_debug_info {
        original_node_names: "Identity_1"
      }
    }
    node_def {
      name: "Identity_2"
      op: "Identity"
      input: "SerializeSparse_2:serialized_sparse:0"
      attr {
        key: "T"
        value {
          type: DT_VARIANT
        }
      }
      attr {
        key: "_output_shapes"
        value {
          list {
            shape {
              dim {
                size: 3
              }
            }
          }
        }
      }
      experimental_debug_info {
        original_node_names: "Identity_2"
      }
    }
    node_def {
      name: "Identity_3"
      op: "Identity"
      input: "SerializeSparse_3:serialized_sparse:0"
      attr {
        key: "T"
        value {
          type: DT_VARIANT
        }
      }
      attr {
        key: "_output_shapes"
        value {
          list {
            shape {
              dim {
                size: 3
              }
            }
          }
        }
      }
      experimental_debug_info {
        original_node_names: "Identity_3"
      }
    }
    node_def {
      name: "Identity_4"
      op: "Identity"
      input: "SerializeSparse_4:serialized_sparse:0"
      attr {
        key: "T"
        value {
          type: DT_VARIANT
        }
      }
      attr {
        key: "_output_shapes"
        value {
          list {
            shape {
              dim {
                size: 3
              }
            }
          }
        }
      }
      experimental_debug_info {
        original_node_names: "Identity_4"
      }
    }
    node_def {
      name: "Identity_5"
      op: "Identity"
      input: "SerializeSparse_5:serialized_sparse:0"
      attr {
        key: "T"
        value {
          type: DT_VARIANT
        }
      }
      attr {
        key: "_output_shapes"
        value {
          list {
            shape {
              dim {
                size: 3
              }
            }
          }
        }
      }
      experimental_debug_info {
        original_node_names: "Identity_5"
      }
    }
    node_def {
      name: "Identity_6"
      op: "Identity"
      input: "SerializeSparse_6:serialized_sparse:0"
      attr {
        key: "T"
        value {
          type: DT_VARIANT
        }
      }
      attr {
        key: "_output_shapes"
        value {
          list {
            shape {
              dim {
                size: 3
              }
            }
          }
        }
      }
      experimental_debug_info {
        original_node_names: "Identity_6"
      }
    }
    node_def {
      name: "Identity_7"
      op: "Identity"
      input: "ParseSingleSequenceExample/ParseSequenceExample/ParseSequenceExampleV2:feature_list_dense_values:0"
      attr {
        key: "T"
        value {
          type: DT_FLOAT
        }
      }
      attr {
        key: "_output_shapes"
        value {
          list {
            shape {
              dim {
                size: -1
              }
            }
          }
        }
      }
      experimental_debug_info {
        original_node_names: "Identity_7"
      }
    }
    ret {
      key: "identity"
      value: "Identity:output:0"
    }
    ret {
      key: "identity_1"
      value: "Identity_1:output:0"
    }
    ret {
      key: "identity_2"
      value: "Identity_2:output:0"
    }
    ret {
      key: "identity_3"
      value: "Identity_3:output:0"
    }
    ret {
      key: "identity_4"
      value: "Identity_4:output:0"
    }
    ret {
      key: "identity_5"
      value: "Identity_5:output:0"
    }
    ret {
      key: "identity_6"
      value: "Identity_6:output:0"
    }
    ret {
      key: "identity_7"
      value: "Identity_7:output:0"
    }
    attr {
      key: "_input_shapes"
      value {
        list {
          shape {
          }
        }
      }
    }
    arg_attr {
      value {
        attr {
          key: "_user_specified_name"
          value {
            s: "args_0"
          }
        }
      }
    }
  }
  function {
    signature {
      name: "rnn_model_sequence_input_layer_sequence_features_assert_all_equal_assert_equal_11_Assert_AssertGuard_false_7880"
      input_arg {
        name: "assert_rnn_model_sequence_input_layer_sequence_features_assert_all_equal_assert_equal_11_all"
        type: DT_BOOL
      }
      input_arg {
        name: "assert_rnn_model_sequence_input_layer_sequence_features_bas_rq_sequence_length"
        type: DT_INT64
      }
      input_arg {
        name: "assert_rnn_model_sequence_input_layer_sequence_features_vol_rq_sequence_length"
        type: DT_INT64
      }
      output_arg {
        name: "identity"
        type: DT_BOOL
      }
      output_arg {
        name: "optionalfromvalue"
        type: DT_VARIANT
      }
      output_arg {
        name: "optionalfromvalue_1"
        type: DT_VARIANT
      }
      output_arg {
        name: "optionalfromvalue_2"
        type: DT_VARIANT
      }
      is_stateful: true
    }
    node_def {
      name: "Assert/data_0"
      op: "Const"
      attr {
        key: "_output_shapes"
        value {
          list {
            shape {
            }
          }
        }
      }
      attr {
        key: "dtype"
        value {
          type: DT_STRING
        }
      }
      attr {
        key: "value"
        value {
          tensor {
            dtype: DT_STRING
            tensor_shape {
            }
            string_val: "Condition x == y did not hold element-wise:"
          }
        }
      }
      experimental_debug_info {
        original_node_names: "Assert/data_0"
      }
    }
    node_def {
      name: "Assert/data_1"
      op: "Const"
      attr {
        key: "_output_shapes"
        value {
          list {
            shape {
            }
          }
        }
      }
      attr {
        key: "dtype"
        value {
          type: DT_STRING
        }
      }
      attr {
        key: "value"
        value {
          tensor {
            dtype: DT_STRING
            tensor_shape {
            }
            string_val: "x (rnn_model/sequence_input_layer/sequence_features/bas_rq/sequence_length:0) = "
          }
        }
      }
      experimental_debug_info {
        original_node_names: "Assert/data_1"
      }
    }
    node_def {
      name: "Assert/data_3"
      op: "Const"
      attr {
        key: "_output_shapes"
        value {
          list {
            shape {
            }
          }
        }
      }
      attr {
        key: "dtype"
        value {
          type: DT_STRING
        }
      }
      attr {
        key: "value"
        value {
          tensor {
            dtype: DT_STRING
            tensor_shape {
            }
            string_val: "y (rnn_model/sequence_input_layer/sequence_features/vol_rq/sequence_length:0) = "
          }
        }
      }
      experimental_debug_info {
        original_node_names: "Assert/data_3"
      }
    }
    node_def {
      name: "Assert"
      op: "Assert"
      input: "assert_rnn_model_sequence_input_layer_sequence_features_assert_all_equal_assert_equal_11_all"
      input: "Assert/data_0:output:0"
      input: "Assert/data_1:output:0"
      input: "assert_rnn_model_sequence_input_layer_sequence_features_bas_rq_sequence_length"
      input: "Assert/data_3:output:0"
      input: "assert_rnn_model_sequence_input_layer_sequence_features_vol_rq_sequence_length"
      attr {
        key: "T"
        value {
          list {
            type: DT_STRING
            type: DT_STRING
            type: DT_INT64
            type: DT_STRING
            type: DT_INT64
          }
        }
      }
      attr {
        key: "_output_shapes"
        value {
          list {
          }
        }
      }
      attr {
        key: "summarize"
        value {
          i: 3
        }
      }
      experimental_debug_info {
        original_node_names: "Assert"
      }
    }
    node_def {
      name: "Identity"
      op: "Identity"
      input: "assert_rnn_model_sequence_input_layer_sequence_features_assert_all_equal_assert_equal_11_all"
      input: "^Assert"
      attr {
        key: "T"
        value {
          type: DT_BOOL
        }
      }
      attr {
        key: "_output_shapes"
        value {
          list {
            shape {
            }
          }
        }
      }
      experimental_debug_info {
        original_node_names: "Identity"
      }
    }
    node_def {
      name: "OptionalFromValue"
      op: "OptionalFromValue"
      input: "Assert/data_0:output:0"
      attr {
        key: "Toutput_types"
        value {
          list {
            type: DT_STRING
          }
        }
      }
      attr {
        key: "_output_shapes"
        value {
          list {
            shape {
            }
          }
        }
      }
      experimental_debug_info {
        original_node_names: "OptionalFromValue"
      }
    }
    node_def {
      name: "OptionalFromValue_1"
      op: "OptionalFromValue"
      input: "Assert/data_1:output:0"
      attr {
        key: "Toutput_types"
        value {
          list {
            type: DT_STRING
          }
        }
      }
      attr {
        key: "_output_shapes"
        value {
          list {
            shape {
            }
          }
        }
      }
      experimental_debug_info {
        original_node_names: "OptionalFromValue_1"
      }
    }
    node_def {
      name: "OptionalFromValue_2"
      op: "OptionalFromValue"
      input: "Assert/data_3:output:0"
      attr {
        key: "Toutput_types"
        value {
          list {
            type: DT_STRING
          }
        }
      }
      attr {
        key: "_output_shapes"
        value {
          list {
            shape {
            }
          }
        }
      }
      experimental_debug_info {
        original_node_names: "OptionalFromValue_2"
      }
    }
    ret {
      key: "identity"
      value: "Identity:output:0"
    }
    ret {
      key: "optionalfromvalue"
      value: "OptionalFromValue:optional:0"
    }
    ret {
      key: "optionalfromvalue_1"
      value: "OptionalFromValue_1:optional:0"
    }
    ret {
      key: "optionalfromvalue_2"
      value: "OptionalFromValue_2:optional:0"
    }
    attr {
      key: "_input_shapes"
      value {
        list {
          shape {
          }
          shape {
            dim {
              size: -1
            }
          }
          shape {
            dim {
              size: -1
            }
          }
        }
      }
    }
  }
  function {
    signature {
      name: "rnn_model_sequence_input_layer_sequence_features_assert_all_equal_assert_equal_7_Assert_AssertGuard_true_7809"
      input_arg {
        name: "identity_rnn_model_sequence_input_layer_sequence_features_assert_all_equal_assert_equal_7_all"
        type: DT_BOOL
      }
      input_arg {
        name: "placeholder"
        type: DT_INT64
      }
      input_arg {
        name: "placeholder_1"
        type: DT_INT64
      }
      output_arg {
        name: "identity"
        type: DT_BOOL
      }
      output_arg {
        name: "optionalnone"
        type: DT_VARIANT
      }
      output_arg {
        name: "optionalnone_1"
        type: DT_VARIANT
      }
      output_arg {
        name: "optionalnone_2"
        type: DT_VARIANT
      }
    }
    node_def {
      name: "NoOp"
      op: "NoOp"
      attr {
        key: "_output_shapes"
        value {
          list {
          }
        }
      }
      experimental_debug_info {
        original_node_names: "NoOp"
      }
    }
    node_def {
      name: "Identity"
      op: "Identity"
      input: "identity_rnn_model_sequence_input_layer_sequence_features_assert_all_equal_assert_equal_7_all"
      input: "^NoOp"
      attr {
        key: "T"
        value {
          type: DT_BOOL
        }
      }
      attr {
        key: "_output_shapes"
        value {
          list {
            shape {
            }
          }
        }
      }
      experimental_debug_info {
        original_node_names: "Identity"
      }
    }
    node_def {
      name: "OptionalNone"
      op: "OptionalNone"
      attr {
        key: "_output_shapes"
        value {
          list {
            shape {
            }
          }
        }
      }
      experimental_debug_info {
        original_node_names: "OptionalNone"
      }
    }
    node_def {
      name: "OptionalNone_1"
      op: "OptionalNone"
      attr {
        key: "_output_shapes"
        value {
          list {
            shape {
            }
          }
        }
      }
      experimental_debug_info {
        original_node_names: "OptionalNone_1"
      }
    }
    node_def {
      name: "OptionalNone_2"
      op: "OptionalNone"
      attr {
        key: "_output_shapes"
        value {
          list {
            shape {
            }
          }
        }
      }
      experimental_debug_info {
        original_node_names: "OptionalNone_2"
      }
    }
    ret {
      key: "identity"
      value: "Identity:output:0"
    }
    ret {
      key: "optionalnone"
      value: "OptionalNone:optional:0"
    }
    ret {
      key: "optionalnone_1"
      value: "OptionalNone_1:optional:0"
    }
    ret {
      key: "optionalnone_2"
      value: "OptionalNone_2:optional:0"
    }
    attr {
      key: "_input_shapes"
      value {
        list {
          shape {
          }
          shape {
            dim {
              size: -1
            }
          }
          shape {
            dim {
              size: -1
            }
          }
        }
      }
    }
  }
  function {
    signature {
      name: "rnn_model_sequence_input_layer_sequence_features_assert_all_equal_assert_equal_1_Assert_AssertGuard_true_7704"
      input_arg {
        name: "identity_rnn_model_sequence_input_layer_sequence_features_assert_all_equal_assert_equal_1_all"
        type: DT_BOOL
      }
      input_arg {
        name: "placeholder"
        type: DT_INT64
      }
      input_arg {
        name: "placeholder_1"
        type: DT_INT64
      }
      output_arg {
        name: "identity"
        type: DT_BOOL
      }
      output_arg {
        name: "optionalnone"
        type: DT_VARIANT
      }
      output_arg {
        name: "optionalnone_1"
        type: DT_VARIANT
      }
      output_arg {
        name: "optionalnone_2"
        type: DT_VARIANT
      }
    }
    node_def {
      name: "NoOp"
      op: "NoOp"
      attr {
        key: "_output_shapes"
        value {
          list {
          }
        }
      }
      experimental_debug_info {
        original_node_names: "NoOp"
      }
    }
    node_def {
      name: "Identity"
      op: "Identity"
      input: "identity_rnn_model_sequence_input_layer_sequence_features_assert_all_equal_assert_equal_1_all"
      input: "^NoOp"
      attr {
        key: "T"
        value {
          type: DT_BOOL
        }
      }
      attr {
        key: "_output_shapes"
        value {
          list {
            shape {
            }
          }
        }
      }
      experimental_debug_info {
        original_node_names: "Identity"
      }
    }
    node_def {
      name: "OptionalNone"
      op: "OptionalNone"
      attr {
        key: "_output_shapes"
        value {
          list {
            shape {
            }
          }
        }
      }
      experimental_debug_info {
        original_node_names: "OptionalNone"
      }
    }
    node_def {
      name: "OptionalNone_1"
      op: "OptionalNone"
      attr {
        key: "_output_shapes"
        value {
          list {
            shape {
            }
          }
        }
      }
      experimental_debug_info {
        original_node_names: "OptionalNone_1"
      }
    }
    node_def {
      name: "OptionalNone_2"
      op: "OptionalNone"
      attr {
        key: "_output_shapes"
        value {
          list {
            shape {
            }
          }
        }
      }
      experimental_debug_info {
        original_node_names: "OptionalNone_2"
      }
    }
    ret {
      key: "identity"
      value: "Identity:output:0"
    }
    ret {
      key: "optionalnone"
      value: "OptionalNone:optional:0"
    }
    ret {
      key: "optionalnone_1"
      value: "OptionalNone_1:optional:0"
    }
    ret {
      key: "optionalnone_2"
      value: "OptionalNone_2:optional:0"
    }
    attr {
      key: "_input_shapes"
      value {
        list {
          shape {
          }
          shape {
            dim {
              size: -1
            }
          }
          shape {
            dim {
              size: -1
            }
          }
        }
      }
    }
  }
}
versions {
  producer: 175
  min_consumer: 12
}
